{"format": "graph-model", "generatedBy": "2.6.0", "convertedBy": "TensorFlow.js Converter v3.9.0", "signature": {"inputs": {"conv2d_4_input": {"name": "conv2d_4_input:0", "dtype": "DT_FLOAT", "tensorShape": {"dim": [{"size": "-1"}, {"size": "256"}, {"size": "256"}, {"size": "3"}]}}}, "outputs": {"dense_5": {"name": "Identity:0", "dtype": "DT_FLOAT", "tensorShape": {"dim": [{"size": "-1"}, {"size": "1"}]}}}}, "modelTopology": {"node": [{"name": "ConstantFolding/StatefulPartitionedCall/sequential_1/hard_swish_17/truediv_recip", "op": "Const", "attr": {"dtype": {"type": "DT_FLOAT"}, "value": {"tensor": {"dtype": "DT_FLOAT", "tensorShape": {}}}}}, {"name": "ConstantFolding/StatefulPartitionedCall/sequential_1/hard_swish_16/truediv_recip", "op": "Const", "attr": {"dtype": {"type": "DT_FLOAT"}, "value": {"tensor": {"dtype": "DT_FLOAT", "tensorShape": {}}}}}, {"name": "ConstantFolding/StatefulPartitionedCall/sequential_1/hard_swish_15/truediv_recip", "op": "Const", "attr": {"dtype": {"type": "DT_FLOAT"}, "value": {"tensor": {"dtype": "DT_FLOAT", "tensorShape": {}}}}}, {"name": "StatefulPartitionedCall/sequential_1/inverted_residual_block_with_se_13/SE_1/GAP_1/Mean/reduction_indices", "op": "Const", "attr": {"value": {"tensor": {"dtype": "DT_INT32", "tensorShape": {"dim": [{"size": "2"}]}}}, "dtype": {"type": "DT_INT32"}}}, {"name": "StatefulPartitionedCall/sequential_1/inverted_residual_block_with_se_13/SE_1/Dense_1/MatMul/ReadVariableOp", "op": "Const", "attr": {"value": {"tensor": {"dtype": "DT_FLOAT", "tensorShape": {"dim": [{"size": "256"}, {"size": "32"}]}}}, "dtype": {"type": "DT_FLOAT"}}}, {"name": "StatefulPartitionedCall/sequential_1/inverted_residual_block_with_se_13/SE_1/Dense_1/BiasAdd/ReadVariableOp", "op": "Const", "attr": {"value": {"tensor": {"dtype": "DT_FLOAT", "tensorShape": {"dim": [{"size": "32"}]}}}, "dtype": {"type": "DT_FLOAT"}}}, {"name": "StatefulPartitionedCall/sequential_1/inverted_residual_block_with_se_13/SE_1/Dense_1/MatMul_1/ReadVariableOp", "op": "Const", "attr": {"dtype": {"type": "DT_FLOAT"}, "value": {"tensor": {"dtype": "DT_FLOAT", "tensorShape": {"dim": [{"size": "32"}, {"size": "256"}]}}}}}, {"name": "StatefulPartitionedCall/sequential_1/inverted_residual_block_with_se_13/SE_1/Dense_1/BiasAdd_1/ReadVariableOp", "op": "Const", "attr": {"dtype": {"type": "DT_FLOAT"}, "value": {"tensor": {"dtype": "DT_FLOAT", "tensorShape": {"dim": [{"size": "256"}]}}}}}, {"name": "StatefulPartitionedCall/sequential_1/inverted_residual_block_with_se_13/SE_1/Mul_1/ExpandDims/dim", "op": "Const", "attr": {"dtype": {"type": "DT_INT32"}, "value": {"tensor": {"dtype": "DT_INT32", "tensorShape": {}}}}}, {"name": "StatefulPartitionedCall/sequential_1/inverted_residual_block_with_se_13/SE_1/Mul_1/ExpandDims_1/dim", "op": "Const", "attr": {"value": {"tensor": {"dtype": "DT_INT32", "tensorShape": {}}}, "dtype": {"type": "DT_INT32"}}}, {"name": "ConstantFolding/StatefulPartitionedCall/sequential_1/hard_swish_14/truediv_recip", "op": "Const", "attr": {"value": {"tensor": {"dtype": "DT_FLOAT", "tensorShape": {}}}, "dtype": {"type": "DT_FLOAT"}}}, {"name": "StatefulPartitionedCall/sequential_1/inverted_residual_block_with_se_12/SE_1/GAP_1/Mean/reduction_indices", "op": "Const", "attr": {"dtype": {"type": "DT_INT32"}, "value": {"tensor": {"dtype": "DT_INT32", "tensorShape": {"dim": [{"size": "2"}]}}}}}, {"name": "StatefulPartitionedCall/sequential_1/inverted_residual_block_with_se_12/SE_1/Dense_1/MatMul/ReadVariableOp", "op": "Const", "attr": {"dtype": {"type": "DT_FLOAT"}, "value": {"tensor": {"dtype": "DT_FLOAT", "tensorShape": {"dim": [{"size": "256"}, {"size": "32"}]}}}}}, {"name": "StatefulPartitionedCall/sequential_1/inverted_residual_block_with_se_12/SE_1/Dense_1/BiasAdd/ReadVariableOp", "op": "Const", "attr": {"dtype": {"type": "DT_FLOAT"}, "value": {"tensor": {"dtype": "DT_FLOAT", "tensorShape": {"dim": [{"size": "32"}]}}}}}, {"name": "StatefulPartitionedCall/sequential_1/inverted_residual_block_with_se_12/SE_1/Dense_1/MatMul_1/ReadVariableOp", "op": "Const", "attr": {"value": {"tensor": {"dtype": "DT_FLOAT", "tensorShape": {"dim": [{"size": "32"}, {"size": "256"}]}}}, "dtype": {"type": "DT_FLOAT"}}}, {"name": "StatefulPartitionedCall/sequential_1/inverted_residual_block_with_se_12/SE_1/Dense_1/BiasAdd_1/ReadVariableOp", "op": "Const", "attr": {"dtype": {"type": "DT_FLOAT"}, "value": {"tensor": {"dtype": "DT_FLOAT", "tensorShape": {"dim": [{"size": "256"}]}}}}}, {"name": "StatefulPartitionedCall/sequential_1/inverted_residual_block_with_se_12/SE_1/Mul_1/ExpandDims/dim", "op": "Const", "attr": {"value": {"tensor": {"dtype": "DT_INT32", "tensorShape": {}}}, "dtype": {"type": "DT_INT32"}}}, {"name": "StatefulPartitionedCall/sequential_1/inverted_residual_block_with_se_12/SE_1/Mul_1/ExpandDims_1/dim", "op": "Const", "attr": {"dtype": {"type": "DT_INT32"}, "value": {"tensor": {"dtype": "DT_INT32", "tensorShape": {}}}}}, {"name": "ConstantFolding/StatefulPartitionedCall/sequential_1/hard_swish_13/truediv_recip", "op": "Const", "attr": {"dtype": {"type": "DT_FLOAT"}, "value": {"tensor": {"dtype": "DT_FLOAT", "tensorShape": {}}}}}, {"name": "StatefulPartitionedCall/sequential_1/inverted_residual_block_with_se_11/SE_1/GAP_1/Mean/reduction_indices", "op": "Const", "attr": {"dtype": {"type": "DT_INT32"}, "value": {"tensor": {"dtype": "DT_INT32", "tensorShape": {"dim": [{"size": "2"}]}}}}}, {"name": "StatefulPartitionedCall/sequential_1/inverted_residual_block_with_se_11/SE_1/Dense_1/MatMul/ReadVariableOp", "op": "Const", "attr": {"value": {"tensor": {"dtype": "DT_FLOAT", "tensorShape": {"dim": [{"size": "128"}, {"size": "16"}]}}}, "dtype": {"type": "DT_FLOAT"}}}, {"name": "StatefulPartitionedCall/sequential_1/inverted_residual_block_with_se_11/SE_1/Dense_1/BiasAdd/ReadVariableOp", "op": "Const", "attr": {"value": {"tensor": {"dtype": "DT_FLOAT", "tensorShape": {"dim": [{"size": "16"}]}}}, "dtype": {"type": "DT_FLOAT"}}}, {"name": "StatefulPartitionedCall/sequential_1/inverted_residual_block_with_se_11/SE_1/Dense_1/MatMul_1/ReadVariableOp", "op": "Const", "attr": {"value": {"tensor": {"dtype": "DT_FLOAT", "tensorShape": {"dim": [{"size": "16"}, {"size": "128"}]}}}, "dtype": {"type": "DT_FLOAT"}}}, {"name": "StatefulPartitionedCall/sequential_1/inverted_residual_block_with_se_11/SE_1/Dense_1/BiasAdd_1/ReadVariableOp", "op": "Const", "attr": {"dtype": {"type": "DT_FLOAT"}, "value": {"tensor": {"dtype": "DT_FLOAT", "tensorShape": {"dim": [{"size": "128"}]}}}}}, {"name": "StatefulPartitionedCall/sequential_1/inverted_residual_block_with_se_11/SE_1/Mul_1/ExpandDims/dim", "op": "Const", "attr": {"dtype": {"type": "DT_INT32"}, "value": {"tensor": {"dtype": "DT_INT32", "tensorShape": {}}}}}, {"name": "StatefulPartitionedCall/sequential_1/inverted_residual_block_with_se_11/SE_1/Mul_1/ExpandDims_1/dim", "op": "Const", "attr": {"value": {"tensor": {"dtype": "DT_INT32", "tensorShape": {}}}, "dtype": {"type": "DT_INT32"}}}, {"name": "ConstantFolding/StatefulPartitionedCall/sequential_1/hard_swish_12/truediv_recip", "op": "Const", "attr": {"dtype": {"type": "DT_FLOAT"}, "value": {"tensor": {"dtype": "DT_FLOAT", "tensorShape": {}}}}}, {"name": "StatefulPartitionedCall/sequential_1/inverted_residual_block_with_se_10/SE_1/GAP_1/Mean/reduction_indices", "op": "Const", "attr": {"value": {"tensor": {"dtype": "DT_INT32", "tensorShape": {"dim": [{"size": "2"}]}}}, "dtype": {"type": "DT_INT32"}}}, {"name": "StatefulPartitionedCall/sequential_1/inverted_residual_block_with_se_10/SE_1/Dense_1/MatMul/ReadVariableOp", "op": "Const", "attr": {"dtype": {"type": "DT_FLOAT"}, "value": {"tensor": {"dtype": "DT_FLOAT", "tensorShape": {"dim": [{"size": "128"}, {"size": "16"}]}}}}}, {"name": "StatefulPartitionedCall/sequential_1/inverted_residual_block_with_se_10/SE_1/Dense_1/BiasAdd/ReadVariableOp", "op": "Const", "attr": {"dtype": {"type": "DT_FLOAT"}, "value": {"tensor": {"dtype": "DT_FLOAT", "tensorShape": {"dim": [{"size": "16"}]}}}}}, {"name": "StatefulPartitionedCall/sequential_1/inverted_residual_block_with_se_10/SE_1/Dense_1/MatMul_1/ReadVariableOp", "op": "Const", "attr": {"value": {"tensor": {"dtype": "DT_FLOAT", "tensorShape": {"dim": [{"size": "16"}, {"size": "128"}]}}}, "dtype": {"type": "DT_FLOAT"}}}, {"name": "StatefulPartitionedCall/sequential_1/inverted_residual_block_with_se_10/SE_1/Dense_1/BiasAdd_1/ReadVariableOp", "op": "Const", "attr": {"dtype": {"type": "DT_FLOAT"}, "value": {"tensor": {"dtype": "DT_FLOAT", "tensorShape": {"dim": [{"size": "128"}]}}}}}, {"name": "StatefulPartitionedCall/sequential_1/inverted_residual_block_with_se_10/SE_1/Mul_1/ExpandDims/dim", "op": "Const", "attr": {"dtype": {"type": "DT_INT32"}, "value": {"tensor": {"dtype": "DT_INT32", "tensorShape": {}}}}}, {"name": "StatefulPartitionedCall/sequential_1/inverted_residual_block_with_se_10/SE_1/Mul_1/ExpandDims_1/dim", "op": "Const", "attr": {"dtype": {"type": "DT_INT32"}, "value": {"tensor": {"dtype": "DT_INT32", "tensorShape": {}}}}}, {"name": "ConstantFolding/StatefulPartitionedCall/sequential_1/hard_swish_11/truediv_recip", "op": "Const", "attr": {"dtype": {"type": "DT_FLOAT"}, "value": {"tensor": {"dtype": "DT_FLOAT", "tensorShape": {}}}}}, {"name": "StatefulPartitionedCall/sequential_1/inverted_residual_block_with_se_9/SE_1/GAP_1/Mean/reduction_indices", "op": "Const", "attr": {"value": {"tensor": {"dtype": "DT_INT32", "tensorShape": {"dim": [{"size": "2"}]}}}, "dtype": {"type": "DT_INT32"}}}, {"name": "StatefulPartitionedCall/sequential_1/inverted_residual_block_with_se_9/SE_1/Dense_1/MatMul/ReadVariableOp", "op": "Const", "attr": {"dtype": {"type": "DT_FLOAT"}, "value": {"tensor": {"dtype": "DT_FLOAT", "tensorShape": {"dim": [{"size": "64"}, {"size": "8"}]}}}}}, {"name": "StatefulPartitionedCall/sequential_1/inverted_residual_block_with_se_9/SE_1/Dense_1/BiasAdd/ReadVariableOp", "op": "Const", "attr": {"value": {"tensor": {"dtype": "DT_FLOAT", "tensorShape": {"dim": [{"size": "8"}]}}}, "dtype": {"type": "DT_FLOAT"}}}, {"name": "StatefulPartitionedCall/sequential_1/inverted_residual_block_with_se_9/SE_1/Dense_1/MatMul_1/ReadVariableOp", "op": "Const", "attr": {"value": {"tensor": {"dtype": "DT_FLOAT", "tensorShape": {"dim": [{"size": "8"}, {"size": "64"}]}}}, "dtype": {"type": "DT_FLOAT"}}}, {"name": "StatefulPartitionedCall/sequential_1/inverted_residual_block_with_se_9/SE_1/Dense_1/BiasAdd_1/ReadVariableOp", "op": "Const", "attr": {"value": {"tensor": {"dtype": "DT_FLOAT", "tensorShape": {"dim": [{"size": "64"}]}}}, "dtype": {"type": "DT_FLOAT"}}}, {"name": "StatefulPartitionedCall/sequential_1/inverted_residual_block_with_se_9/SE_1/Mul_1/ExpandDims/dim", "op": "Const", "attr": {"dtype": {"type": "DT_INT32"}, "value": {"tensor": {"dtype": "DT_INT32", "tensorShape": {}}}}}, {"name": "StatefulPartitionedCall/sequential_1/inverted_residual_block_with_se_9/SE_1/Mul_1/ExpandDims_1/dim", "op": "Const", "attr": {"value": {"tensor": {"dtype": "DT_INT32", "tensorShape": {}}}, "dtype": {"type": "DT_INT32"}}}, {"name": "ConstantFolding/StatefulPartitionedCall/sequential_1/hard_swish_10/truediv_recip", "op": "Const", "attr": {"value": {"tensor": {"dtype": "DT_FLOAT", "tensorShape": {}}}, "dtype": {"type": "DT_FLOAT"}}}, {"name": "StatefulPartitionedCall/sequential_1/inverted_residual_block_with_se_8/SE_1/GAP_1/Mean/reduction_indices", "op": "Const", "attr": {"value": {"tensor": {"dtype": "DT_INT32", "tensorShape": {"dim": [{"size": "2"}]}}}, "dtype": {"type": "DT_INT32"}}}, {"name": "StatefulPartitionedCall/sequential_1/inverted_residual_block_with_se_8/SE_1/Dense_1/MatMul/ReadVariableOp", "op": "Const", "attr": {"value": {"tensor": {"dtype": "DT_FLOAT", "tensorShape": {"dim": [{"size": "64"}, {"size": "8"}]}}}, "dtype": {"type": "DT_FLOAT"}}}, {"name": "StatefulPartitionedCall/sequential_1/inverted_residual_block_with_se_8/SE_1/Dense_1/BiasAdd/ReadVariableOp", "op": "Const", "attr": {"value": {"tensor": {"dtype": "DT_FLOAT", "tensorShape": {"dim": [{"size": "8"}]}}}, "dtype": {"type": "DT_FLOAT"}}}, {"name": "StatefulPartitionedCall/sequential_1/inverted_residual_block_with_se_8/SE_1/Dense_1/MatMul_1/ReadVariableOp", "op": "Const", "attr": {"dtype": {"type": "DT_FLOAT"}, "value": {"tensor": {"dtype": "DT_FLOAT", "tensorShape": {"dim": [{"size": "8"}, {"size": "64"}]}}}}}, {"name": "StatefulPartitionedCall/sequential_1/inverted_residual_block_with_se_8/SE_1/Dense_1/BiasAdd_1/ReadVariableOp", "op": "Const", "attr": {"dtype": {"type": "DT_FLOAT"}, "value": {"tensor": {"dtype": "DT_FLOAT", "tensorShape": {"dim": [{"size": "64"}]}}}}}, {"name": "StatefulPartitionedCall/sequential_1/inverted_residual_block_with_se_8/SE_1/Mul_1/ExpandDims/dim", "op": "Const", "attr": {"dtype": {"type": "DT_INT32"}, "value": {"tensor": {"dtype": "DT_INT32", "tensorShape": {}}}}}, {"name": "StatefulPartitionedCall/sequential_1/inverted_residual_block_with_se_8/SE_1/Mul_1/ExpandDims_1/dim", "op": "Const", "attr": {"value": {"tensor": {"dtype": "DT_INT32", "tensorShape": {}}}, "dtype": {"type": "DT_INT32"}}}, {"name": "StatefulPartitionedCall/sequential_1/inverted_residual_block_with_se_7/SE_1/GAP_1/Mean/reduction_indices", "op": "Const", "attr": {"value": {"tensor": {"dtype": "DT_INT32", "tensorShape": {"dim": [{"size": "2"}]}}}, "dtype": {"type": "DT_INT32"}}}, {"name": "StatefulPartitionedCall/sequential_1/inverted_residual_block_with_se_7/SE_1/Dense_1/MatMul/ReadVariableOp", "op": "Const", "attr": {"value": {"tensor": {"dtype": "DT_FLOAT", "tensorShape": {"dim": [{"size": "16"}, {"size": "2"}]}}}, "dtype": {"type": "DT_FLOAT"}}}, {"name": "StatefulPartitionedCall/sequential_1/inverted_residual_block_with_se_7/SE_1/Dense_1/BiasAdd/ReadVariableOp", "op": "Const", "attr": {"value": {"tensor": {"dtype": "DT_FLOAT", "tensorShape": {"dim": [{"size": "2"}]}}}, "dtype": {"type": "DT_FLOAT"}}}, {"name": "StatefulPartitionedCall/sequential_1/inverted_residual_block_with_se_7/SE_1/Dense_1/MatMul_1/ReadVariableOp", "op": "Const", "attr": {"value": {"tensor": {"dtype": "DT_FLOAT", "tensorShape": {"dim": [{"size": "2"}, {"size": "16"}]}}}, "dtype": {"type": "DT_FLOAT"}}}, {"name": "StatefulPartitionedCall/sequential_1/inverted_residual_block_with_se_7/SE_1/Dense_1/BiasAdd_1/ReadVariableOp", "op": "Const", "attr": {"dtype": {"type": "DT_FLOAT"}, "value": {"tensor": {"dtype": "DT_FLOAT", "tensorShape": {"dim": [{"size": "16"}]}}}}}, {"name": "StatefulPartitionedCall/sequential_1/inverted_residual_block_with_se_7/SE_1/Mul_1/ExpandDims/dim", "op": "Const", "attr": {"dtype": {"type": "DT_INT32"}, "value": {"tensor": {"dtype": "DT_INT32", "tensorShape": {}}}}}, {"name": "StatefulPartitionedCall/sequential_1/inverted_residual_block_with_se_7/SE_1/Mul_1/ExpandDims_1/dim", "op": "Const", "attr": {"value": {"tensor": {"dtype": "DT_INT32", "tensorShape": {}}}, "dtype": {"type": "DT_INT32"}}}, {"name": "ConstantFolding/StatefulPartitionedCall/sequential_1/hard_swish_9/truediv_recip", "op": "Const", "attr": {"dtype": {"type": "DT_FLOAT"}, "value": {"tensor": {"dtype": "DT_FLOAT", "tensorShape": {}}}}}, {"name": "StatefulPartitionedCall/sequential_1/conv2d_4/Conv2D/ReadVariableOp", "op": "Const", "attr": {"dtype": {"type": "DT_FLOAT"}, "value": {"tensor": {"dtype": "DT_FLOAT", "tensorShape": {"dim": [{"size": "3"}, {"size": "3"}, {"size": "3"}, {"size": "16"}]}}}}}, {"name": "StatefulPartitionedCall/sequential_1/conv2d_4/BiasAdd/ReadVariableOp", "op": "Const", "attr": {"dtype": {"type": "DT_FLOAT"}, "value": {"tensor": {"dtype": "DT_FLOAT", "tensorShape": {"dim": [{"size": "16"}]}}}}}, {"name": "StatefulPartitionedCall/sequential_1/hard_swish_9/add/y", "op": "Const", "attr": {"dtype": {"type": "DT_FLOAT"}, "value": {"tensor": {"dtype": "DT_FLOAT", "tensorShape": {}}}}}, {"name": "StatefulPartitionedCall/sequential_1/inverted_residual_block_with_se_7/Conv2D_3/Conv2D/ReadVariableOp", "op": "Const", "attr": {"value": {"tensor": {"dtype": "DT_FLOAT", "tensorShape": {"dim": [{"size": "1"}, {"size": "1"}, {"size": "16"}, {"size": "16"}]}}}, "dtype": {"type": "DT_FLOAT"}}}, {"name": "StatefulPartitionedCall/sequential_1/inverted_residual_block_with_se_7/Conv2D_3/BiasAdd/ReadVariableOp", "op": "Const", "attr": {"value": {"tensor": {"dtype": "DT_FLOAT", "tensorShape": {"dim": [{"size": "16"}]}}}, "dtype": {"type": "DT_FLOAT"}}}, {"name": "StatefulPartitionedCall/sequential_1/inverted_residual_block_2/Conv2D_3/Conv2D/ReadVariableOp", "op": "Const", "attr": {"dtype": {"type": "DT_FLOAT"}, "value": {"tensor": {"dtype": "DT_FLOAT", "tensorShape": {"dim": [{"size": "1"}, {"size": "1"}, {"size": "32"}, {"size": "32"}]}}}}}, {"name": "StatefulPartitionedCall/sequential_1/inverted_residual_block_2/Conv2D_3/BiasAdd/ReadVariableOp", "op": "Const", "attr": {"value": {"tensor": {"dtype": "DT_FLOAT", "tensorShape": {"dim": [{"size": "32"}]}}}, "dtype": {"type": "DT_FLOAT"}}}, {"name": "StatefulPartitionedCall/sequential_1/inverted_residual_block_with_se_8/Conv2D_3/Conv2D/ReadVariableOp", "op": "Const", "attr": {"value": {"tensor": {"dtype": "DT_FLOAT", "tensorShape": {"dim": [{"size": "1"}, {"size": "1"}, {"size": "64"}, {"size": "64"}]}}}, "dtype": {"type": "DT_FLOAT"}}}, {"name": "StatefulPartitionedCall/sequential_1/inverted_residual_block_with_se_8/Conv2D_3/BiasAdd/ReadVariableOp", "op": "Const", "attr": {"dtype": {"type": "DT_FLOAT"}, "value": {"tensor": {"dtype": "DT_FLOAT", "tensorShape": {"dim": [{"size": "64"}]}}}}}, {"name": "StatefulPartitionedCall/sequential_1/hard_swish_10/add/y", "op": "Const", "attr": {"value": {"tensor": {"dtype": "DT_FLOAT", "tensorShape": {}}}, "dtype": {"type": "DT_FLOAT"}}}, {"name": "StatefulPartitionedCall/sequential_1/hard_swish_11/add/y", "op": "Const", "attr": {"value": {"tensor": {"dtype": "DT_FLOAT", "tensorShape": {}}}, "dtype": {"type": "DT_FLOAT"}}}, {"name": "StatefulPartitionedCall/sequential_1/inverted_residual_block_with_se_10/Conv2D_3/Conv2D/ReadVariableOp", "op": "Const", "attr": {"dtype": {"type": "DT_FLOAT"}, "value": {"tensor": {"dtype": "DT_FLOAT", "tensorShape": {"dim": [{"size": "1"}, {"size": "1"}, {"size": "128"}, {"size": "128"}]}}}}}, {"name": "StatefulPartitionedCall/sequential_1/inverted_residual_block_with_se_10/Conv2D_3/BiasAdd/ReadVariableOp", "op": "Const", "attr": {"dtype": {"type": "DT_FLOAT"}, "value": {"tensor": {"dtype": "DT_FLOAT", "tensorShape": {"dim": [{"size": "128"}]}}}}}, {"name": "StatefulPartitionedCall/sequential_1/hard_swish_12/add/y", "op": "Const", "attr": {"value": {"tensor": {"dtype": "DT_FLOAT", "tensorShape": {}}}, "dtype": {"type": "DT_FLOAT"}}}, {"name": "StatefulPartitionedCall/sequential_1/hard_swish_13/add/y", "op": "Const", "attr": {"value": {"tensor": {"dtype": "DT_FLOAT", "tensorShape": {}}}, "dtype": {"type": "DT_FLOAT"}}}, {"name": "StatefulPartitionedCall/sequential_1/inverted_residual_block_with_se_12/Conv2D_3/Conv2D/ReadVariableOp", "op": "Const", "attr": {"value": {"tensor": {"dtype": "DT_FLOAT", "tensorShape": {"dim": [{"size": "1"}, {"size": "1"}, {"size": "256"}, {"size": "256"}]}}}, "dtype": {"type": "DT_FLOAT"}}}, {"name": "StatefulPartitionedCall/sequential_1/inverted_residual_block_with_se_12/Conv2D_3/BiasAdd/ReadVariableOp", "op": "Const", "attr": {"value": {"tensor": {"dtype": "DT_FLOAT", "tensorShape": {"dim": [{"size": "256"}]}}}, "dtype": {"type": "DT_FLOAT"}}}, {"name": "StatefulPartitionedCall/sequential_1/hard_swish_14/add/y", "op": "Const", "attr": {"value": {"tensor": {"dtype": "DT_FLOAT", "tensorShape": {}}}, "dtype": {"type": "DT_FLOAT"}}}, {"name": "StatefulPartitionedCall/sequential_1/hard_swish_15/add/y", "op": "Const", "attr": {"dtype": {"type": "DT_FLOAT"}, "value": {"tensor": {"dtype": "DT_FLOAT", "tensorShape": {}}}}}, {"name": "StatefulPartitionedCall/sequential_1/hard_swish_16/add/y", "op": "Const", "attr": {"dtype": {"type": "DT_FLOAT"}, "value": {"tensor": {"dtype": "DT_FLOAT", "tensorShape": {}}}}}, {"name": "StatefulPartitionedCall/sequential_1/conv2d_6/Conv2D/ReadVariableOp", "op": "Const", "attr": {"value": {"tensor": {"dtype": "DT_FLOAT", "tensorShape": {"dim": [{"size": "1"}, {"size": "1"}, {"size": "512"}, {"size": "1024"}]}}}, "dtype": {"type": "DT_FLOAT"}}}, {"name": "StatefulPartitionedCall/sequential_1/conv2d_6/BiasAdd/ReadVariableOp", "op": "Const", "attr": {"value": {"tensor": {"dtype": "DT_FLOAT", "tensorShape": {"dim": [{"size": "1024"}]}}}, "dtype": {"type": "DT_FLOAT"}}}, {"name": "StatefulPartitionedCall/sequential_1/hard_swish_17/add/y", "op": "Const", "attr": {"dtype": {"type": "DT_FLOAT"}, "value": {"tensor": {"dtype": "DT_FLOAT", "tensorShape": {}}}}}, {"name": "StatefulPartitionedCall/sequential_1/conv2d_7/Conv2D/ReadVariableOp", "op": "Const", "attr": {"value": {"tensor": {"dtype": "DT_FLOAT", "tensorShape": {"dim": [{"size": "1"}, {"size": "1"}, {"size": "1024"}, {"size": "512"}]}}}, "dtype": {"type": "DT_FLOAT"}}}, {"name": "StatefulPartitionedCall/sequential_1/conv2d_7/BiasAdd/ReadVariableOp", "op": "Const", "attr": {"value": {"tensor": {"dtype": "DT_FLOAT", "tensorShape": {"dim": [{"size": "512"}]}}}, "dtype": {"type": "DT_FLOAT"}}}, {"name": "StatefulPartitionedCall/sequential_1/global_average_pooling2d_1/Mean/reduction_indices", "op": "Const", "attr": {"dtype": {"type": "DT_INT32"}, "value": {"tensor": {"dtype": "DT_INT32", "tensorShape": {"dim": [{"size": "2"}]}}}}}, {"name": "StatefulPartitionedCall/sequential_1/dense_3/MatMul/ReadVariableOp", "op": "Const", "attr": {"value": {"tensor": {"dtype": "DT_FLOAT", "tensorShape": {"dim": [{"size": "512"}, {"size": "256"}]}}}, "dtype": {"type": "DT_FLOAT"}}}, {"name": "StatefulPartitionedCall/sequential_1/dense_3/BiasAdd/ReadVariableOp", "op": "Const", "attr": {"dtype": {"type": "DT_FLOAT"}, "value": {"tensor": {"dtype": "DT_FLOAT", "tensorShape": {"dim": [{"size": "256"}]}}}}}, {"name": "StatefulPartitionedCall/sequential_1/dense_4/MatMul/ReadVariableOp", "op": "Const", "attr": {"dtype": {"type": "DT_FLOAT"}, "value": {"tensor": {"dtype": "DT_FLOAT", "tensorShape": {"dim": [{"size": "256"}, {"size": "128"}]}}}}}, {"name": "StatefulPartitionedCall/sequential_1/dense_4/BiasAdd/ReadVariableOp", "op": "Const", "attr": {"dtype": {"type": "DT_FLOAT"}, "value": {"tensor": {"dtype": "DT_FLOAT", "tensorShape": {"dim": [{"size": "128"}]}}}}}, {"name": "StatefulPartitionedCall/sequential_1/dense_5/MatMul/ReadVariableOp", "op": "Const", "attr": {"dtype": {"type": "DT_FLOAT"}, "value": {"tensor": {"dtype": "DT_FLOAT", "tensorShape": {"dim": [{"size": "128"}, {"size": "1"}]}}}}}, {"name": "StatefulPartitionedCall/sequential_1/dense_5/BiasAdd/ReadVariableOp", "op": "Const", "attr": {"dtype": {"type": "DT_FLOAT"}, "value": {"tensor": {"dtype": "DT_FLOAT", "tensorShape": {"dim": [{"size": "1"}]}}}}}, {"name": "conv2d_4_input", "op": "Placeholder", "attr": {"dtype": {"type": "DT_FLOAT"}, "shape": {"shape": {"dim": [{"size": "-1"}, {"size": "256"}, {"size": "256"}, {"size": "3"}]}}}}, {"name": "StatefulPartitionedCall/sequential_1/inverted_residual_block_with_se_7/Conv2D_1/Conv2D_weights", "op": "Const", "attr": {"dtype": {"type": "DT_FLOAT"}, "value": {"tensor": {"dtype": "DT_FLOAT", "tensorShape": {"dim": [{"size": "1"}, {"size": "1"}, {"size": "16"}, {"size": "16"}]}}}}}, {"name": "StatefulPartitionedCall/sequential_1/inverted_residual_block_with_se_12/Conv2D_2/Conv2D_bn_offset", "op": "Const", "attr": {"value": {"tensor": {"dtype": "DT_FLOAT", "tensorShape": {"dim": [{"size": "256"}]}}}, "dtype": {"type": "DT_FLOAT"}}}, {"name": "StatefulPartitionedCall/sequential_1/inverted_residual_block_with_se_7/Conv2D_1/Conv2D_bn_offset", "op": "Const", "attr": {"value": {"tensor": {"dtype": "DT_FLOAT", "tensorShape": {"dim": [{"size": "16"}]}}}, "dtype": {"type": "DT_FLOAT"}}}, {"name": "StatefulPartitionedCall/sequential_1/inverted_residual_block_with_se_7/DConv2D_1/depthwise_weights", "op": "Const", "attr": {"dtype": {"type": "DT_FLOAT"}, "value": {"tensor": {"dtype": "DT_FLOAT", "tensorShape": {"dim": [{"size": "3"}, {"size": "3"}, {"size": "16"}, {"size": "1"}]}}}}}, {"name": "StatefulPartitionedCall/sequential_1/inverted_residual_block_with_se_7/DConv2D_1/depthwise_bn_offset", "op": "Const", "attr": {"dtype": {"type": "DT_FLOAT"}, "value": {"tensor": {"dtype": "DT_FLOAT", "tensorShape": {"dim": [{"size": "16"}]}}}}}, {"name": "StatefulPartitionedCall/sequential_1/inverted_residual_block_with_se_7/Conv2D_2/Conv2D_weights", "op": "Const", "attr": {"dtype": {"type": "DT_FLOAT"}, "value": {"tensor": {"dtype": "DT_FLOAT", "tensorShape": {"dim": [{"size": "1"}, {"size": "1"}, {"size": "16"}, {"size": "16"}]}}}}}, {"name": "StatefulPartitionedCall/sequential_1/inverted_residual_block_with_se_7/Conv2D_2/Conv2D_bn_offset", "op": "Const", "attr": {"dtype": {"type": "DT_FLOAT"}, "value": {"tensor": {"dtype": "DT_FLOAT", "tensorShape": {"dim": [{"size": "16"}]}}}}}, {"name": "StatefulPartitionedCall/sequential_1/inverted_residual_block_2/Conv2D_1/Conv2D_weights", "op": "Const", "attr": {"dtype": {"type": "DT_FLOAT"}, "value": {"tensor": {"dtype": "DT_FLOAT", "tensorShape": {"dim": [{"size": "1"}, {"size": "1"}, {"size": "16"}, {"size": "32"}]}}}}}, {"name": "StatefulPartitionedCall/sequential_1/inverted_residual_block_2/Conv2D_1/Conv2D_bn_offset", "op": "Const", "attr": {"dtype": {"type": "DT_FLOAT"}, "value": {"tensor": {"dtype": "DT_FLOAT", "tensorShape": {"dim": [{"size": "32"}]}}}}}, {"name": "StatefulPartitionedCall/sequential_1/inverted_residual_block_with_se_13/Conv2D_1/Conv2D_weights", "op": "Const", "attr": {"value": {"tensor": {"dtype": "DT_FLOAT", "tensorShape": {"dim": [{"size": "1"}, {"size": "1"}, {"size": "256"}, {"size": "256"}]}}}, "dtype": {"type": "DT_FLOAT"}}}, {"name": "StatefulPartitionedCall/sequential_1/inverted_residual_block_2/DConv2D_1/depthwise_weights", "op": "Const", "attr": {"dtype": {"type": "DT_FLOAT"}, "value": {"tensor": {"dtype": "DT_FLOAT", "tensorShape": {"dim": [{"size": "3"}, {"size": "3"}, {"size": "32"}, {"size": "1"}]}}}}}, {"name": "StatefulPartitionedCall/sequential_1/inverted_residual_block_2/DConv2D_1/depthwise_bn_offset", "op": "Const", "attr": {"dtype": {"type": "DT_FLOAT"}, "value": {"tensor": {"dtype": "DT_FLOAT", "tensorShape": {"dim": [{"size": "32"}]}}}}}, {"name": "StatefulPartitionedCall/sequential_1/inverted_residual_block_2/Conv2D_2/Conv2D_weights", "op": "Const", "attr": {"dtype": {"type": "DT_FLOAT"}, "value": {"tensor": {"dtype": "DT_FLOAT", "tensorShape": {"dim": [{"size": "1"}, {"size": "1"}, {"size": "32"}, {"size": "32"}]}}}}}, {"name": "StatefulPartitionedCall/sequential_1/inverted_residual_block_2/Conv2D_2/Conv2D_bn_offset", "op": "Const", "attr": {"value": {"tensor": {"dtype": "DT_FLOAT", "tensorShape": {"dim": [{"size": "32"}]}}}, "dtype": {"type": "DT_FLOAT"}}}, {"name": "StatefulPartitionedCall/sequential_1/inverted_residual_block_with_se_13/Conv2D_1/Conv2D_bn_offset", "op": "Const", "attr": {"value": {"tensor": {"dtype": "DT_FLOAT", "tensorShape": {"dim": [{"size": "256"}]}}}, "dtype": {"type": "DT_FLOAT"}}}, {"name": "StatefulPartitionedCall/sequential_1/inverted_residual_block_3/Conv2D_1/Conv2D_weights", "op": "Const", "attr": {"value": {"tensor": {"dtype": "DT_FLOAT", "tensorShape": {"dim": [{"size": "1"}, {"size": "1"}, {"size": "32"}, {"size": "32"}]}}}, "dtype": {"type": "DT_FLOAT"}}}, {"name": "StatefulPartitionedCall/sequential_1/inverted_residual_block_3/Conv2D_1/Conv2D_bn_offset", "op": "Const", "attr": {"value": {"tensor": {"dtype": "DT_FLOAT", "tensorShape": {"dim": [{"size": "32"}]}}}, "dtype": {"type": "DT_FLOAT"}}}, {"name": "StatefulPartitionedCall/sequential_1/inverted_residual_block_3/DConv2D_1/depthwise_weights", "op": "Const", "attr": {"dtype": {"type": "DT_FLOAT"}, "value": {"tensor": {"dtype": "DT_FLOAT", "tensorShape": {"dim": [{"size": "3"}, {"size": "3"}, {"size": "32"}, {"size": "1"}]}}}}}, {"name": "StatefulPartitionedCall/sequential_1/inverted_residual_block_3/DConv2D_1/depthwise_bn_offset", "op": "Const", "attr": {"dtype": {"type": "DT_FLOAT"}, "value": {"tensor": {"dtype": "DT_FLOAT", "tensorShape": {"dim": [{"size": "32"}]}}}}}, {"name": "StatefulPartitionedCall/sequential_1/inverted_residual_block_3/Conv2D_2/Conv2D_weights", "op": "Const", "attr": {"dtype": {"type": "DT_FLOAT"}, "value": {"tensor": {"dtype": "DT_FLOAT", "tensorShape": {"dim": [{"size": "1"}, {"size": "1"}, {"size": "32"}, {"size": "32"}]}}}}}, {"name": "StatefulPartitionedCall/sequential_1/inverted_residual_block_with_se_13/DConv2D_1/depthwise_weights", "op": "Const", "attr": {"dtype": {"type": "DT_FLOAT"}, "value": {"tensor": {"dtype": "DT_FLOAT", "tensorShape": {"dim": [{"size": "3"}, {"size": "3"}, {"size": "256"}, {"size": "1"}]}}}}}, {"name": "StatefulPartitionedCall/sequential_1/inverted_residual_block_3/Conv2D_2/Conv2D_bn_offset", "op": "Const", "attr": {"value": {"tensor": {"dtype": "DT_FLOAT", "tensorShape": {"dim": [{"size": "32"}]}}}, "dtype": {"type": "DT_FLOAT"}}}, {"name": "StatefulPartitionedCall/sequential_1/inverted_residual_block_with_se_8/Conv2D_1/Conv2D_weights", "op": "Const", "attr": {"value": {"tensor": {"dtype": "DT_FLOAT", "tensorShape": {"dim": [{"size": "1"}, {"size": "1"}, {"size": "32"}, {"size": "64"}]}}}, "dtype": {"type": "DT_FLOAT"}}}, {"name": "StatefulPartitionedCall/sequential_1/inverted_residual_block_with_se_13/DConv2D_1/depthwise_bn_offset", "op": "Const", "attr": {"value": {"tensor": {"dtype": "DT_FLOAT", "tensorShape": {"dim": [{"size": "256"}]}}}, "dtype": {"type": "DT_FLOAT"}}}, {"name": "StatefulPartitionedCall/sequential_1/inverted_residual_block_with_se_8/Conv2D_1/Conv2D_bn_offset", "op": "Const", "attr": {"value": {"tensor": {"dtype": "DT_FLOAT", "tensorShape": {"dim": [{"size": "64"}]}}}, "dtype": {"type": "DT_FLOAT"}}}, {"name": "StatefulPartitionedCall/sequential_1/inverted_residual_block_with_se_8/DConv2D_1/depthwise_weights", "op": "Const", "attr": {"value": {"tensor": {"dtype": "DT_FLOAT", "tensorShape": {"dim": [{"size": "3"}, {"size": "3"}, {"size": "64"}, {"size": "1"}]}}}, "dtype": {"type": "DT_FLOAT"}}}, {"name": "StatefulPartitionedCall/sequential_1/inverted_residual_block_with_se_8/DConv2D_1/depthwise_bn_offset", "op": "Const", "attr": {"value": {"tensor": {"dtype": "DT_FLOAT", "tensorShape": {"dim": [{"size": "64"}]}}}, "dtype": {"type": "DT_FLOAT"}}}, {"name": "StatefulPartitionedCall/sequential_1/inverted_residual_block_with_se_8/Conv2D_2/Conv2D_weights", "op": "Const", "attr": {"dtype": {"type": "DT_FLOAT"}, "value": {"tensor": {"dtype": "DT_FLOAT", "tensorShape": {"dim": [{"size": "1"}, {"size": "1"}, {"size": "64"}, {"size": "64"}]}}}}}, {"name": "StatefulPartitionedCall/sequential_1/inverted_residual_block_with_se_8/Conv2D_2/Conv2D_bn_offset", "op": "Const", "attr": {"value": {"tensor": {"dtype": "DT_FLOAT", "tensorShape": {"dim": [{"size": "64"}]}}}, "dtype": {"type": "DT_FLOAT"}}}, {"name": "StatefulPartitionedCall/sequential_1/inverted_residual_block_with_se_9/Conv2D_1/Conv2D_weights", "op": "Const", "attr": {"dtype": {"type": "DT_FLOAT"}, "value": {"tensor": {"dtype": "DT_FLOAT", "tensorShape": {"dim": [{"size": "1"}, {"size": "1"}, {"size": "64"}, {"size": "64"}]}}}}}, {"name": "StatefulPartitionedCall/sequential_1/inverted_residual_block_with_se_9/Conv2D_1/Conv2D_bn_offset", "op": "Const", "attr": {"dtype": {"type": "DT_FLOAT"}, "value": {"tensor": {"dtype": "DT_FLOAT", "tensorShape": {"dim": [{"size": "64"}]}}}}}, {"name": "StatefulPartitionedCall/sequential_1/inverted_residual_block_with_se_9/DConv2D_1/depthwise_weights", "op": "Const", "attr": {"value": {"tensor": {"dtype": "DT_FLOAT", "tensorShape": {"dim": [{"size": "3"}, {"size": "3"}, {"size": "64"}, {"size": "1"}]}}}, "dtype": {"type": "DT_FLOAT"}}}, {"name": "StatefulPartitionedCall/sequential_1/inverted_residual_block_with_se_9/DConv2D_1/depthwise_bn_offset", "op": "Const", "attr": {"value": {"tensor": {"dtype": "DT_FLOAT", "tensorShape": {"dim": [{"size": "64"}]}}}, "dtype": {"type": "DT_FLOAT"}}}, {"name": "StatefulPartitionedCall/sequential_1/inverted_residual_block_with_se_9/Conv2D_2/Conv2D_weights", "op": "Const", "attr": {"dtype": {"type": "DT_FLOAT"}, "value": {"tensor": {"dtype": "DT_FLOAT", "tensorShape": {"dim": [{"size": "1"}, {"size": "1"}, {"size": "64"}, {"size": "64"}]}}}}}, {"name": "StatefulPartitionedCall/sequential_1/inverted_residual_block_with_se_9/Conv2D_2/Conv2D_bn_offset", "op": "Const", "attr": {"value": {"tensor": {"dtype": "DT_FLOAT", "tensorShape": {"dim": [{"size": "64"}]}}}, "dtype": {"type": "DT_FLOAT"}}}, {"name": "StatefulPartitionedCall/sequential_1/inverted_residual_block_with_se_13/Conv2D_2/Conv2D_weights", "op": "Const", "attr": {"value": {"tensor": {"dtype": "DT_FLOAT", "tensorShape": {"dim": [{"size": "1"}, {"size": "1"}, {"size": "256"}, {"size": "256"}]}}}, "dtype": {"type": "DT_FLOAT"}}}, {"name": "StatefulPartitionedCall/sequential_1/inverted_residual_block_with_se_10/Conv2D_1/Conv2D_weights", "op": "Const", "attr": {"dtype": {"type": "DT_FLOAT"}, "value": {"tensor": {"dtype": "DT_FLOAT", "tensorShape": {"dim": [{"size": "1"}, {"size": "1"}, {"size": "64"}, {"size": "128"}]}}}}}, {"name": "StatefulPartitionedCall/sequential_1/inverted_residual_block_with_se_10/Conv2D_1/Conv2D_bn_offset", "op": "Const", "attr": {"value": {"tensor": {"dtype": "DT_FLOAT", "tensorShape": {"dim": [{"size": "128"}]}}}, "dtype": {"type": "DT_FLOAT"}}}, {"name": "StatefulPartitionedCall/sequential_1/inverted_residual_block_with_se_13/Conv2D_2/Conv2D_bn_offset", "op": "Const", "attr": {"dtype": {"type": "DT_FLOAT"}, "value": {"tensor": {"dtype": "DT_FLOAT", "tensorShape": {"dim": [{"size": "256"}]}}}}}, {"name": "StatefulPartitionedCall/sequential_1/inverted_residual_block_with_se_10/DConv2D_1/depthwise_weights", "op": "Const", "attr": {"value": {"tensor": {"dtype": "DT_FLOAT", "tensorShape": {"dim": [{"size": "3"}, {"size": "3"}, {"size": "128"}, {"size": "1"}]}}}, "dtype": {"type": "DT_FLOAT"}}}, {"name": "StatefulPartitionedCall/sequential_1/inverted_residual_block_with_se_10/DConv2D_1/depthwise_bn_offset", "op": "Const", "attr": {"dtype": {"type": "DT_FLOAT"}, "value": {"tensor": {"dtype": "DT_FLOAT", "tensorShape": {"dim": [{"size": "128"}]}}}}}, {"name": "StatefulPartitionedCall/sequential_1/inverted_residual_block_with_se_10/Conv2D_2/Conv2D_weights", "op": "Const", "attr": {"value": {"tensor": {"dtype": "DT_FLOAT", "tensorShape": {"dim": [{"size": "1"}, {"size": "1"}, {"size": "128"}, {"size": "128"}]}}}, "dtype": {"type": "DT_FLOAT"}}}, {"name": "StatefulPartitionedCall/sequential_1/inverted_residual_block_with_se_10/Conv2D_2/Conv2D_bn_offset", "op": "Const", "attr": {"value": {"tensor": {"dtype": "DT_FLOAT", "tensorShape": {"dim": [{"size": "128"}]}}}, "dtype": {"type": "DT_FLOAT"}}}, {"name": "StatefulPartitionedCall/sequential_1/inverted_residual_block_with_se_11/Conv2D_1/Conv2D_weights", "op": "Const", "attr": {"value": {"tensor": {"dtype": "DT_FLOAT", "tensorShape": {"dim": [{"size": "1"}, {"size": "1"}, {"size": "128"}, {"size": "128"}]}}}, "dtype": {"type": "DT_FLOAT"}}}, {"name": "StatefulPartitionedCall/sequential_1/inverted_residual_block_with_se_11/Conv2D_1/Conv2D_bn_offset", "op": "Const", "attr": {"value": {"tensor": {"dtype": "DT_FLOAT", "tensorShape": {"dim": [{"size": "128"}]}}}, "dtype": {"type": "DT_FLOAT"}}}, {"name": "StatefulPartitionedCall/sequential_1/inverted_residual_block_with_se_11/DConv2D_1/depthwise_weights", "op": "Const", "attr": {"value": {"tensor": {"dtype": "DT_FLOAT", "tensorShape": {"dim": [{"size": "3"}, {"size": "3"}, {"size": "128"}, {"size": "1"}]}}}, "dtype": {"type": "DT_FLOAT"}}}, {"name": "StatefulPartitionedCall/sequential_1/inverted_residual_block_with_se_11/DConv2D_1/depthwise_bn_offset", "op": "Const", "attr": {"value": {"tensor": {"dtype": "DT_FLOAT", "tensorShape": {"dim": [{"size": "128"}]}}}, "dtype": {"type": "DT_FLOAT"}}}, {"name": "StatefulPartitionedCall/sequential_1/conv2d_5/Conv2D_weights", "op": "Const", "attr": {"dtype": {"type": "DT_FLOAT"}, "value": {"tensor": {"dtype": "DT_FLOAT", "tensorShape": {"dim": [{"size": "1"}, {"size": "1"}, {"size": "256"}, {"size": "512"}]}}}}}, {"name": "StatefulPartitionedCall/sequential_1/conv2d_5/Conv2D_bn_offset", "op": "Const", "attr": {"value": {"tensor": {"dtype": "DT_FLOAT", "tensorShape": {"dim": [{"size": "512"}]}}}, "dtype": {"type": "DT_FLOAT"}}}, {"name": "StatefulPartitionedCall/sequential_1/inverted_residual_block_with_se_11/Conv2D_2/Conv2D_weights", "op": "Const", "attr": {"value": {"tensor": {"dtype": "DT_FLOAT", "tensorShape": {"dim": [{"size": "1"}, {"size": "1"}, {"size": "128"}, {"size": "128"}]}}}, "dtype": {"type": "DT_FLOAT"}}}, {"name": "StatefulPartitionedCall/sequential_1/inverted_residual_block_with_se_11/Conv2D_2/Conv2D_bn_offset", "op": "Const", "attr": {"dtype": {"type": "DT_FLOAT"}, "value": {"tensor": {"dtype": "DT_FLOAT", "tensorShape": {"dim": [{"size": "128"}]}}}}}, {"name": "StatefulPartitionedCall/sequential_1/inverted_residual_block_with_se_12/Conv2D_1/Conv2D_weights", "op": "Const", "attr": {"value": {"tensor": {"dtype": "DT_FLOAT", "tensorShape": {"dim": [{"size": "1"}, {"size": "1"}, {"size": "128"}, {"size": "256"}]}}}, "dtype": {"type": "DT_FLOAT"}}}, {"name": "StatefulPartitionedCall/sequential_1/inverted_residual_block_with_se_12/Conv2D_1/Conv2D_bn_offset", "op": "Const", "attr": {"value": {"tensor": {"dtype": "DT_FLOAT", "tensorShape": {"dim": [{"size": "256"}]}}}, "dtype": {"type": "DT_FLOAT"}}}, {"name": "StatefulPartitionedCall/sequential_1/inverted_residual_block_with_se_12/DConv2D_1/depthwise_weights", "op": "Const", "attr": {"dtype": {"type": "DT_FLOAT"}, "value": {"tensor": {"dtype": "DT_FLOAT", "tensorShape": {"dim": [{"size": "3"}, {"size": "3"}, {"size": "256"}, {"size": "1"}]}}}}}, {"name": "StatefulPartitionedCall/sequential_1/inverted_residual_block_with_se_12/DConv2D_1/depthwise_bn_offset", "op": "Const", "attr": {"dtype": {"type": "DT_FLOAT"}, "value": {"tensor": {"dtype": "DT_FLOAT", "tensorShape": {"dim": [{"size": "256"}]}}}}}, {"name": "StatefulPartitionedCall/sequential_1/inverted_residual_block_with_se_12/Conv2D_2/Conv2D_weights", "op": "Const", "attr": {"value": {"tensor": {"dtype": "DT_FLOAT", "tensorShape": {"dim": [{"size": "1"}, {"size": "1"}, {"size": "256"}, {"size": "256"}]}}}, "dtype": {"type": "DT_FLOAT"}}}, {"name": "StatefulPartitionedCall/sequential_1/conv2d_4/BiasAdd", "op": "_FusedConv2D", "input": ["conv2d_4_input", "StatefulPartitionedCall/sequential_1/conv2d_4/Conv2D/ReadVariableOp", "StatefulPartitionedCall/sequential_1/conv2d_4/BiasAdd/ReadVariableOp"], "device": "/device:CPU:0", "attr": {"explicit_paddings": {"list": {}}, "fused_ops": {"list": {"s": ["Qmlhc0FkZA=="]}}, "T": {"type": "DT_FLOAT"}, "epsilon": {"f": 0.0}, "strides": {"list": {"i": ["1", "2", "2", "1"]}}, "padding": {"s": "U0FNRQ=="}, "data_format": {"s": "TkhXQw=="}, "dilations": {"list": {"i": ["1", "1", "1", "1"]}}, "use_cudnn_on_gpu": {"b": true}, "num_args": {"i": "1"}}}, {"name": "StatefulPartitionedCall/sequential_1/hard_swish_9/truediv", "op": "Mul", "input": ["ConstantFolding/StatefulPartitionedCall/sequential_1/hard_swish_9/truediv_recip", "StatefulPartitionedCall/sequential_1/conv2d_4/BiasAdd"], "attr": {"_grappler_ArithmeticOptimizer_MinimizeBroadcasts": {"b": true}, "T": {"type": "DT_FLOAT"}}}, {"name": "StatefulPartitionedCall/sequential_1/hard_swish_9/add", "op": "AddV2", "input": ["StatefulPartitionedCall/sequential_1/conv2d_4/BiasAdd", "StatefulPartitionedCall/sequential_1/hard_swish_9/add/y"], "attr": {"T": {"type": "DT_FLOAT"}}}, {"name": "StatefulPartitionedCall/sequential_1/hard_swish_9/Relu6", "op": "Relu6", "input": ["StatefulPartitionedCall/sequential_1/hard_swish_9/add"], "attr": {"T": {"type": "DT_FLOAT"}}}, {"name": "StatefulPartitionedCall/sequential_1/hard_swish_9/mul", "op": "Mul", "input": ["StatefulPartitionedCall/sequential_1/hard_swish_9/truediv", "StatefulPartitionedCall/sequential_1/hard_swish_9/Relu6"], "attr": {"_grappler_ArithmeticOptimizer_MinimizeBroadcasts": {"b": true}, "T": {"type": "DT_FLOAT"}}}, {"name": "StatefulPartitionedCall/sequential_1/inverted_residual_block_with_se_7/BN_1/FusedBatchNormV3", "op": "_FusedConv2D", "input": ["StatefulPartitionedCall/sequential_1/hard_swish_9/mul", "StatefulPartitionedCall/sequential_1/inverted_residual_block_with_se_7/Conv2D_1/Conv2D_weights", "StatefulPartitionedCall/sequential_1/inverted_residual_block_with_se_7/Conv2D_1/Conv2D_bn_offset"], "device": "/device:CPU:0", "attr": {"epsilon": {"f": 0.0}, "dilations": {"list": {"i": ["1", "1", "1", "1"]}}, "strides": {"list": {"i": ["1", "1", "1", "1"]}}, "T": {"type": "DT_FLOAT"}, "padding": {"s": "U0FNRQ=="}, "data_format": {"s": "TkhXQw=="}, "num_args": {"i": "1"}, "fused_ops": {"list": {"s": ["Qmlhc0FkZA=="]}}, "use_cudnn_on_gpu": {"b": true}, "explicit_paddings": {"list": {}}}}, {"name": "StatefulPartitionedCall/sequential_1/inverted_residual_block_with_se_7/Relu_1", "op": "Relu", "input": ["StatefulPartitionedCall/sequential_1/inverted_residual_block_with_se_7/BN_1/FusedBatchNormV3"], "attr": {"T": {"type": "DT_FLOAT"}}}, {"name": "StatefulPartitionedCall/sequential_1/inverted_residual_block_with_se_7/Relu", "op": "Relu", "input": ["StatefulPartitionedCall/sequential_1/inverted_residual_block_with_se_7/BN_1/FusedBatchNormV3"], "attr": {"T": {"type": "DT_FLOAT"}}}, {"name": "StatefulPartitionedCall/sequential_1/inverted_residual_block_with_se_7/DConv2D_1/depthwise", "op": "FusedDepthwiseConv2dNative", "input": ["StatefulPartitionedCall/sequential_1/inverted_residual_block_with_se_7/Relu_1", "StatefulPartitionedCall/sequential_1/inverted_residual_block_with_se_7/DConv2D_1/depthwise_weights", "StatefulPartitionedCall/sequential_1/inverted_residual_block_with_se_7/DConv2D_1/depthwise_bn_offset"], "attr": {"num_args": {"i": "1"}, "strides": {"list": {"i": ["1", "2", "2", "1"]}}, "padding": {"s": "U0FNRQ=="}, "explicit_paddings": {"list": {}}, "data_format": {"s": "TkhXQw=="}, "fused_ops": {"list": {"s": ["Qmlhc0FkZA==", "UmVsdQ=="]}}, "T": {"type": "DT_FLOAT"}, "dilations": {"list": {"i": ["1", "1", "1", "1"]}}}}, {"name": "StatefulPartitionedCall/sequential_1/inverted_residual_block_with_se_7/Conv2D_3/BiasAdd", "op": "_FusedConv2D", "input": ["StatefulPartitionedCall/sequential_1/inverted_residual_block_with_se_7/Relu", "StatefulPartitionedCall/sequential_1/inverted_residual_block_with_se_7/Conv2D_3/Conv2D/ReadVariableOp", "StatefulPartitionedCall/sequential_1/inverted_residual_block_with_se_7/Conv2D_3/BiasAdd/ReadVariableOp"], "device": "/device:CPU:0", "attr": {"epsilon": {"f": 0.0}, "data_format": {"s": "TkhXQw=="}, "padding": {"s": "U0FNRQ=="}, "use_cudnn_on_gpu": {"b": true}, "num_args": {"i": "1"}, "dilations": {"list": {"i": ["1", "1", "1", "1"]}}, "explicit_paddings": {"list": {}}, "fused_ops": {"list": {"s": ["Qmlhc0FkZA=="]}}, "T": {"type": "DT_FLOAT"}, "strides": {"list": {"i": ["1", "2", "2", "1"]}}}}, {"name": "StatefulPartitionedCall/sequential_1/inverted_residual_block_with_se_7/SE_1/GAP_1/Mean", "op": "Mean", "input": ["StatefulPartitionedCall/sequential_1/inverted_residual_block_with_se_7/DConv2D_1/depthwise", "StatefulPartitionedCall/sequential_1/inverted_residual_block_with_se_7/SE_1/GAP_1/Mean/reduction_indices"], "attr": {"T": {"type": "DT_FLOAT"}, "keep_dims": {"b": false}, "Tidx": {"type": "DT_INT32"}}}, {"name": "StatefulPartitionedCall/sequential_1/inverted_residual_block_with_se_7/SE_1/Dense_1/Relu", "op": "_FusedMatMul", "input": ["StatefulPartitionedCall/sequential_1/inverted_residual_block_with_se_7/SE_1/GAP_1/Mean", "StatefulPartitionedCall/sequential_1/inverted_residual_block_with_se_7/SE_1/Dense_1/MatMul/ReadVariableOp", "StatefulPartitionedCall/sequential_1/inverted_residual_block_with_se_7/SE_1/Dense_1/BiasAdd/ReadVariableOp"], "device": "/device:CPU:0", "attr": {"transpose_a": {"b": false}, "transpose_b": {"b": false}, "T": {"type": "DT_FLOAT"}, "fused_ops": {"list": {"s": ["Qmlhc0FkZA==", "UmVsdQ=="]}}, "num_args": {"i": "1"}, "epsilon": {"f": 0.0}}}, {"name": "StatefulPartitionedCall/sequential_1/inverted_residual_block_with_se_7/SE_1/Dense_1/BiasAdd_1", "op": "_FusedMatMul", "input": ["StatefulPartitionedCall/sequential_1/inverted_residual_block_with_se_7/SE_1/Dense_1/Relu", "StatefulPartitionedCall/sequential_1/inverted_residual_block_with_se_7/SE_1/Dense_1/MatMul_1/ReadVariableOp", "StatefulPartitionedCall/sequential_1/inverted_residual_block_with_se_7/SE_1/Dense_1/BiasAdd_1/ReadVariableOp"], "device": "/device:CPU:0", "attr": {"T": {"type": "DT_FLOAT"}, "fused_ops": {"list": {"s": ["Qmlhc0FkZA=="]}}, "num_args": {"i": "1"}, "transpose_b": {"b": false}, "transpose_a": {"b": false}, "epsilon": {"f": 0.0}}}, {"name": "StatefulPartitionedCall/sequential_1/inverted_residual_block_with_se_7/SE_1/Dense_1/Sigmoid", "op": "Sigmoid", "input": ["StatefulPartitionedCall/sequential_1/inverted_residual_block_with_se_7/SE_1/Dense_1/BiasAdd_1"], "attr": {"T": {"type": "DT_FLOAT"}}}, {"name": "StatefulPartitionedCall/sequential_1/inverted_residual_block_with_se_7/SE_1/Mul_1/ExpandDims", "op": "ExpandDims", "input": ["StatefulPartitionedCall/sequential_1/inverted_residual_block_with_se_7/SE_1/Dense_1/Sigmoid", "StatefulPartitionedCall/sequential_1/inverted_residual_block_with_se_7/SE_1/Mul_1/ExpandDims/dim"], "attr": {"T": {"type": "DT_FLOAT"}, "Tdim": {"type": "DT_INT32"}}}, {"name": "StatefulPartitionedCall/sequential_1/inverted_residual_block_with_se_7/SE_1/Mul_1/ExpandDims_1", "op": "ExpandDims", "input": ["StatefulPartitionedCall/sequential_1/inverted_residual_block_with_se_7/SE_1/Mul_1/ExpandDims", "StatefulPartitionedCall/sequential_1/inverted_residual_block_with_se_7/SE_1/Mul_1/ExpandDims_1/dim"], "attr": {"Tdim": {"type": "DT_INT32"}, "T": {"type": "DT_FLOAT"}}}, {"name": "StatefulPartitionedCall/sequential_1/inverted_residual_block_with_se_7/SE_1/Mul_1/mul", "op": "Mul", "input": ["StatefulPartitionedCall/sequential_1/inverted_residual_block_with_se_7/DConv2D_1/depthwise", "StatefulPartitionedCall/sequential_1/inverted_residual_block_with_se_7/SE_1/Mul_1/ExpandDims_1"], "attr": {"T": {"type": "DT_FLOAT"}}}, {"name": "StatefulPartitionedCall/sequential_1/inverted_residual_block_with_se_7/Relu_3", "op": "_FusedConv2D", "input": ["StatefulPartitionedCall/sequential_1/inverted_residual_block_with_se_7/SE_1/Mul_1/mul", "StatefulPartitionedCall/sequential_1/inverted_residual_block_with_se_7/Conv2D_2/Conv2D_weights", "StatefulPartitionedCall/sequential_1/inverted_residual_block_with_se_7/Conv2D_2/Conv2D_bn_offset"], "device": "/device:CPU:0", "attr": {"fused_ops": {"list": {"s": ["Qmlhc0FkZA==", "UmVsdQ=="]}}, "strides": {"list": {"i": ["1", "1", "1", "1"]}}, "data_format": {"s": "TkhXQw=="}, "epsilon": {"f": 0.0}, "T": {"type": "DT_FLOAT"}, "padding": {"s": "U0FNRQ=="}, "explicit_paddings": {"list": {}}, "num_args": {"i": "1"}, "use_cudnn_on_gpu": {"b": true}, "dilations": {"list": {"i": ["1", "1", "1", "1"]}}}}, {"name": "StatefulPartitionedCall/sequential_1/inverted_residual_block_with_se_7/add", "op": "AddV2", "input": ["StatefulPartitionedCall/sequential_1/inverted_residual_block_with_se_7/Relu_3", "StatefulPartitionedCall/sequential_1/inverted_residual_block_with_se_7/Conv2D_3/BiasAdd"], "attr": {"T": {"type": "DT_FLOAT"}}}, {"name": "StatefulPartitionedCall/sequential_1/re_lu_5/Relu", "op": "Relu", "input": ["StatefulPartitionedCall/sequential_1/inverted_residual_block_with_se_7/add"], "attr": {"T": {"type": "DT_FLOAT"}}}, {"name": "StatefulPartitionedCall/sequential_1/inverted_residual_block_2/BN_1/FusedBatchNormV3", "op": "_FusedConv2D", "input": ["StatefulPartitionedCall/sequential_1/re_lu_5/Relu", "StatefulPartitionedCall/sequential_1/inverted_residual_block_2/Conv2D_1/Conv2D_weights", "StatefulPartitionedCall/sequential_1/inverted_residual_block_2/Conv2D_1/Conv2D_bn_offset"], "device": "/device:CPU:0", "attr": {"strides": {"list": {"i": ["1", "1", "1", "1"]}}, "explicit_paddings": {"list": {}}, "data_format": {"s": "TkhXQw=="}, "padding": {"s": "U0FNRQ=="}, "T": {"type": "DT_FLOAT"}, "use_cudnn_on_gpu": {"b": true}, "dilations": {"list": {"i": ["1", "1", "1", "1"]}}, "fused_ops": {"list": {"s": ["Qmlhc0FkZA=="]}}, "num_args": {"i": "1"}, "epsilon": {"f": 0.0}}}, {"name": "StatefulPartitionedCall/sequential_1/inverted_residual_block_2/Relu_1", "op": "Relu", "input": ["StatefulPartitionedCall/sequential_1/inverted_residual_block_2/BN_1/FusedBatchNormV3"], "attr": {"T": {"type": "DT_FLOAT"}}}, {"name": "StatefulPartitionedCall/sequential_1/inverted_residual_block_2/Relu", "op": "Relu", "input": ["StatefulPartitionedCall/sequential_1/inverted_residual_block_2/BN_1/FusedBatchNormV3"], "attr": {"T": {"type": "DT_FLOAT"}}}, {"name": "StatefulPartitionedCall/sequential_1/inverted_residual_block_2/DConv2D_1/depthwise", "op": "FusedDepthwiseConv2dNative", "input": ["StatefulPartitionedCall/sequential_1/inverted_residual_block_2/Relu_1", "StatefulPartitionedCall/sequential_1/inverted_residual_block_2/DConv2D_1/depthwise_weights", "StatefulPartitionedCall/sequential_1/inverted_residual_block_2/DConv2D_1/depthwise_bn_offset"], "attr": {"num_args": {"i": "1"}, "strides": {"list": {"i": ["1", "2", "2", "1"]}}, "fused_ops": {"list": {"s": ["Qmlhc0FkZA==", "UmVsdQ=="]}}, "dilations": {"list": {"i": ["1", "1", "1", "1"]}}, "padding": {"s": "U0FNRQ=="}, "data_format": {"s": "TkhXQw=="}, "T": {"type": "DT_FLOAT"}, "explicit_paddings": {"list": {}}}}, {"name": "StatefulPartitionedCall/sequential_1/inverted_residual_block_2/Conv2D_3/BiasAdd", "op": "_FusedConv2D", "input": ["StatefulPartitionedCall/sequential_1/inverted_residual_block_2/Relu", "StatefulPartitionedCall/sequential_1/inverted_residual_block_2/Conv2D_3/Conv2D/ReadVariableOp", "StatefulPartitionedCall/sequential_1/inverted_residual_block_2/Conv2D_3/BiasAdd/ReadVariableOp"], "device": "/device:CPU:0", "attr": {"fused_ops": {"list": {"s": ["Qmlhc0FkZA=="]}}, "dilations": {"list": {"i": ["1", "1", "1", "1"]}}, "num_args": {"i": "1"}, "T": {"type": "DT_FLOAT"}, "use_cudnn_on_gpu": {"b": true}, "strides": {"list": {"i": ["1", "2", "2", "1"]}}, "padding": {"s": "U0FNRQ=="}, "explicit_paddings": {"list": {}}, "data_format": {"s": "TkhXQw=="}, "epsilon": {"f": 0.0}}}, {"name": "StatefulPartitionedCall/sequential_1/inverted_residual_block_2/Relu_3", "op": "_FusedConv2D", "input": ["StatefulPartitionedCall/sequential_1/inverted_residual_block_2/DConv2D_1/depthwise", "StatefulPartitionedCall/sequential_1/inverted_residual_block_2/Conv2D_2/Conv2D_weights", "StatefulPartitionedCall/sequential_1/inverted_residual_block_2/Conv2D_2/Conv2D_bn_offset"], "device": "/device:CPU:0", "attr": {"explicit_paddings": {"list": {}}, "fused_ops": {"list": {"s": ["Qmlhc0FkZA==", "UmVsdQ=="]}}, "use_cudnn_on_gpu": {"b": true}, "dilations": {"list": {"i": ["1", "1", "1", "1"]}}, "strides": {"list": {"i": ["1", "1", "1", "1"]}}, "padding": {"s": "U0FNRQ=="}, "T": {"type": "DT_FLOAT"}, "data_format": {"s": "TkhXQw=="}, "epsilon": {"f": 0.0}, "num_args": {"i": "1"}}}, {"name": "StatefulPartitionedCall/sequential_1/inverted_residual_block_2/add", "op": "AddV2", "input": ["StatefulPartitionedCall/sequential_1/inverted_residual_block_2/Relu_3", "StatefulPartitionedCall/sequential_1/inverted_residual_block_2/Conv2D_3/BiasAdd"], "attr": {"T": {"type": "DT_FLOAT"}}}, {"name": "StatefulPartitionedCall/sequential_1/re_lu_6/Relu", "op": "Relu", "input": ["StatefulPartitionedCall/sequential_1/inverted_residual_block_2/add"], "attr": {"T": {"type": "DT_FLOAT"}}}, {"name": "StatefulPartitionedCall/sequential_1/inverted_residual_block_3/Relu_1", "op": "_FusedConv2D", "input": ["StatefulPartitionedCall/sequential_1/re_lu_6/Relu", "StatefulPartitionedCall/sequential_1/inverted_residual_block_3/Conv2D_1/Conv2D_weights", "StatefulPartitionedCall/sequential_1/inverted_residual_block_3/Conv2D_1/Conv2D_bn_offset"], "device": "/device:CPU:0", "attr": {"padding": {"s": "U0FNRQ=="}, "strides": {"list": {"i": ["1", "1", "1", "1"]}}, "dilations": {"list": {"i": ["1", "1", "1", "1"]}}, "num_args": {"i": "1"}, "T": {"type": "DT_FLOAT"}, "use_cudnn_on_gpu": {"b": true}, "fused_ops": {"list": {"s": ["Qmlhc0FkZA==", "UmVsdQ=="]}}, "epsilon": {"f": 0.0}, "data_format": {"s": "TkhXQw=="}, "explicit_paddings": {"list": {}}}}, {"name": "StatefulPartitionedCall/sequential_1/inverted_residual_block_3/DConv2D_1/depthwise", "op": "FusedDepthwiseConv2dNative", "input": ["StatefulPartitionedCall/sequential_1/inverted_residual_block_3/Relu_1", "StatefulPartitionedCall/sequential_1/inverted_residual_block_3/DConv2D_1/depthwise_weights", "StatefulPartitionedCall/sequential_1/inverted_residual_block_3/DConv2D_1/depthwise_bn_offset"], "attr": {"strides": {"list": {"i": ["1", "1", "1", "1"]}}, "T": {"type": "DT_FLOAT"}, "data_format": {"s": "TkhXQw=="}, "padding": {"s": "U0FNRQ=="}, "explicit_paddings": {"list": {}}, "fused_ops": {"list": {"s": ["Qmlhc0FkZA==", "UmVsdQ=="]}}, "dilations": {"list": {"i": ["1", "1", "1", "1"]}}, "num_args": {"i": "1"}}}, {"name": "StatefulPartitionedCall/sequential_1/inverted_residual_block_3/Relu_3", "op": "_FusedConv2D", "input": ["StatefulPartitionedCall/sequential_1/inverted_residual_block_3/DConv2D_1/depthwise", "StatefulPartitionedCall/sequential_1/inverted_residual_block_3/Conv2D_2/Conv2D_weights", "StatefulPartitionedCall/sequential_1/inverted_residual_block_3/Conv2D_2/Conv2D_bn_offset"], "device": "/device:CPU:0", "attr": {"num_args": {"i": "1"}, "strides": {"list": {"i": ["1", "1", "1", "1"]}}, "epsilon": {"f": 0.0}, "fused_ops": {"list": {"s": ["Qmlhc0FkZA==", "UmVsdQ=="]}}, "data_format": {"s": "TkhXQw=="}, "dilations": {"list": {"i": ["1", "1", "1", "1"]}}, "explicit_paddings": {"list": {}}, "use_cudnn_on_gpu": {"b": true}, "padding": {"s": "U0FNRQ=="}, "T": {"type": "DT_FLOAT"}}}, {"name": "StatefulPartitionedCall/sequential_1/inverted_residual_block_3/add", "op": "AddV2", "input": ["StatefulPartitionedCall/sequential_1/inverted_residual_block_3/Relu_3", "StatefulPartitionedCall/sequential_1/re_lu_6/Relu"], "attr": {"T": {"type": "DT_FLOAT"}}}, {"name": "StatefulPartitionedCall/sequential_1/re_lu_7/Relu", "op": "Relu", "input": ["StatefulPartitionedCall/sequential_1/inverted_residual_block_3/add"], "attr": {"T": {"type": "DT_FLOAT"}}}, {"name": "StatefulPartitionedCall/sequential_1/inverted_residual_block_with_se_8/BN_1/FusedBatchNormV3", "op": "_FusedConv2D", "input": ["StatefulPartitionedCall/sequential_1/re_lu_7/Relu", "StatefulPartitionedCall/sequential_1/inverted_residual_block_with_se_8/Conv2D_1/Conv2D_weights", "StatefulPartitionedCall/sequential_1/inverted_residual_block_with_se_8/Conv2D_1/Conv2D_bn_offset"], "device": "/device:CPU:0", "attr": {"data_format": {"s": "TkhXQw=="}, "dilations": {"list": {"i": ["1", "1", "1", "1"]}}, "num_args": {"i": "1"}, "epsilon": {"f": 0.0}, "use_cudnn_on_gpu": {"b": true}, "strides": {"list": {"i": ["1", "1", "1", "1"]}}, "fused_ops": {"list": {"s": ["Qmlhc0FkZA=="]}}, "explicit_paddings": {"list": {}}, "T": {"type": "DT_FLOAT"}, "padding": {"s": "U0FNRQ=="}}}, {"name": "StatefulPartitionedCall/sequential_1/inverted_residual_block_with_se_8/Relu_1", "op": "Relu", "input": ["StatefulPartitionedCall/sequential_1/inverted_residual_block_with_se_8/BN_1/FusedBatchNormV3"], "attr": {"T": {"type": "DT_FLOAT"}}}, {"name": "StatefulPartitionedCall/sequential_1/inverted_residual_block_with_se_8/Relu", "op": "Relu", "input": ["StatefulPartitionedCall/sequential_1/inverted_residual_block_with_se_8/BN_1/FusedBatchNormV3"], "attr": {"T": {"type": "DT_FLOAT"}}}, {"name": "StatefulPartitionedCall/sequential_1/inverted_residual_block_with_se_8/DConv2D_1/depthwise", "op": "FusedDepthwiseConv2dNative", "input": ["StatefulPartitionedCall/sequential_1/inverted_residual_block_with_se_8/Relu_1", "StatefulPartitionedCall/sequential_1/inverted_residual_block_with_se_8/DConv2D_1/depthwise_weights", "StatefulPartitionedCall/sequential_1/inverted_residual_block_with_se_8/DConv2D_1/depthwise_bn_offset"], "attr": {"padding": {"s": "U0FNRQ=="}, "num_args": {"i": "1"}, "T": {"type": "DT_FLOAT"}, "data_format": {"s": "TkhXQw=="}, "fused_ops": {"list": {"s": ["Qmlhc0FkZA==", "UmVsdQ=="]}}, "dilations": {"list": {"i": ["1", "1", "1", "1"]}}, "explicit_paddings": {"list": {}}, "strides": {"list": {"i": ["1", "2", "2", "1"]}}}}, {"name": "StatefulPartitionedCall/sequential_1/inverted_residual_block_with_se_8/Conv2D_3/BiasAdd", "op": "_FusedConv2D", "input": ["StatefulPartitionedCall/sequential_1/inverted_residual_block_with_se_8/Relu", "StatefulPartitionedCall/sequential_1/inverted_residual_block_with_se_8/Conv2D_3/Conv2D/ReadVariableOp", "StatefulPartitionedCall/sequential_1/inverted_residual_block_with_se_8/Conv2D_3/BiasAdd/ReadVariableOp"], "device": "/device:CPU:0", "attr": {"epsilon": {"f": 0.0}, "num_args": {"i": "1"}, "dilations": {"list": {"i": ["1", "1", "1", "1"]}}, "T": {"type": "DT_FLOAT"}, "data_format": {"s": "TkhXQw=="}, "use_cudnn_on_gpu": {"b": true}, "fused_ops": {"list": {"s": ["Qmlhc0FkZA=="]}}, "explicit_paddings": {"list": {}}, "padding": {"s": "U0FNRQ=="}, "strides": {"list": {"i": ["1", "2", "2", "1"]}}}}, {"name": "StatefulPartitionedCall/sequential_1/inverted_residual_block_with_se_8/SE_1/GAP_1/Mean", "op": "Mean", "input": ["StatefulPartitionedCall/sequential_1/inverted_residual_block_with_se_8/DConv2D_1/depthwise", "StatefulPartitionedCall/sequential_1/inverted_residual_block_with_se_8/SE_1/GAP_1/Mean/reduction_indices"], "attr": {"keep_dims": {"b": false}, "Tidx": {"type": "DT_INT32"}, "T": {"type": "DT_FLOAT"}}}, {"name": "StatefulPartitionedCall/sequential_1/inverted_residual_block_with_se_8/SE_1/Dense_1/Relu", "op": "_FusedMatMul", "input": ["StatefulPartitionedCall/sequential_1/inverted_residual_block_with_se_8/SE_1/GAP_1/Mean", "StatefulPartitionedCall/sequential_1/inverted_residual_block_with_se_8/SE_1/Dense_1/MatMul/ReadVariableOp", "StatefulPartitionedCall/sequential_1/inverted_residual_block_with_se_8/SE_1/Dense_1/BiasAdd/ReadVariableOp"], "device": "/device:CPU:0", "attr": {"transpose_a": {"b": false}, "T": {"type": "DT_FLOAT"}, "epsilon": {"f": 0.0}, "fused_ops": {"list": {"s": ["Qmlhc0FkZA==", "UmVsdQ=="]}}, "num_args": {"i": "1"}, "transpose_b": {"b": false}}}, {"name": "StatefulPartitionedCall/sequential_1/inverted_residual_block_with_se_8/SE_1/Dense_1/BiasAdd_1", "op": "_FusedMatMul", "input": ["StatefulPartitionedCall/sequential_1/inverted_residual_block_with_se_8/SE_1/Dense_1/Relu", "StatefulPartitionedCall/sequential_1/inverted_residual_block_with_se_8/SE_1/Dense_1/MatMul_1/ReadVariableOp", "StatefulPartitionedCall/sequential_1/inverted_residual_block_with_se_8/SE_1/Dense_1/BiasAdd_1/ReadVariableOp"], "device": "/device:CPU:0", "attr": {"epsilon": {"f": 0.0}, "num_args": {"i": "1"}, "transpose_b": {"b": false}, "transpose_a": {"b": false}, "T": {"type": "DT_FLOAT"}, "fused_ops": {"list": {"s": ["Qmlhc0FkZA=="]}}}}, {"name": "StatefulPartitionedCall/sequential_1/inverted_residual_block_with_se_8/SE_1/Dense_1/Sigmoid", "op": "Sigmoid", "input": ["StatefulPartitionedCall/sequential_1/inverted_residual_block_with_se_8/SE_1/Dense_1/BiasAdd_1"], "attr": {"T": {"type": "DT_FLOAT"}}}, {"name": "StatefulPartitionedCall/sequential_1/inverted_residual_block_with_se_8/SE_1/Mul_1/ExpandDims", "op": "ExpandDims", "input": ["StatefulPartitionedCall/sequential_1/inverted_residual_block_with_se_8/SE_1/Dense_1/Sigmoid", "StatefulPartitionedCall/sequential_1/inverted_residual_block_with_se_8/SE_1/Mul_1/ExpandDims/dim"], "attr": {"T": {"type": "DT_FLOAT"}, "Tdim": {"type": "DT_INT32"}}}, {"name": "StatefulPartitionedCall/sequential_1/inverted_residual_block_with_se_8/SE_1/Mul_1/ExpandDims_1", "op": "ExpandDims", "input": ["StatefulPartitionedCall/sequential_1/inverted_residual_block_with_se_8/SE_1/Mul_1/ExpandDims", "StatefulPartitionedCall/sequential_1/inverted_residual_block_with_se_8/SE_1/Mul_1/ExpandDims_1/dim"], "attr": {"T": {"type": "DT_FLOAT"}, "Tdim": {"type": "DT_INT32"}}}, {"name": "StatefulPartitionedCall/sequential_1/inverted_residual_block_with_se_8/SE_1/Mul_1/mul", "op": "Mul", "input": ["StatefulPartitionedCall/sequential_1/inverted_residual_block_with_se_8/DConv2D_1/depthwise", "StatefulPartitionedCall/sequential_1/inverted_residual_block_with_se_8/SE_1/Mul_1/ExpandDims_1"], "attr": {"T": {"type": "DT_FLOAT"}}}, {"name": "StatefulPartitionedCall/sequential_1/inverted_residual_block_with_se_8/Relu_3", "op": "_FusedConv2D", "input": ["StatefulPartitionedCall/sequential_1/inverted_residual_block_with_se_8/SE_1/Mul_1/mul", "StatefulPartitionedCall/sequential_1/inverted_residual_block_with_se_8/Conv2D_2/Conv2D_weights", "StatefulPartitionedCall/sequential_1/inverted_residual_block_with_se_8/Conv2D_2/Conv2D_bn_offset"], "device": "/device:CPU:0", "attr": {"data_format": {"s": "TkhXQw=="}, "explicit_paddings": {"list": {}}, "strides": {"list": {"i": ["1", "1", "1", "1"]}}, "fused_ops": {"list": {"s": ["Qmlhc0FkZA==", "UmVsdQ=="]}}, "dilations": {"list": {"i": ["1", "1", "1", "1"]}}, "num_args": {"i": "1"}, "T": {"type": "DT_FLOAT"}, "use_cudnn_on_gpu": {"b": true}, "epsilon": {"f": 0.0}, "padding": {"s": "U0FNRQ=="}}}, {"name": "StatefulPartitionedCall/sequential_1/inverted_residual_block_with_se_8/add", "op": "AddV2", "input": ["StatefulPartitionedCall/sequential_1/inverted_residual_block_with_se_8/Relu_3", "StatefulPartitionedCall/sequential_1/inverted_residual_block_with_se_8/Conv2D_3/BiasAdd"], "attr": {"T": {"type": "DT_FLOAT"}}}, {"name": "StatefulPartitionedCall/sequential_1/hard_swish_10/truediv", "op": "Mul", "input": ["ConstantFolding/StatefulPartitionedCall/sequential_1/hard_swish_10/truediv_recip", "StatefulPartitionedCall/sequential_1/inverted_residual_block_with_se_8/add"], "attr": {"_grappler_ArithmeticOptimizer_MinimizeBroadcasts": {"b": true}, "T": {"type": "DT_FLOAT"}}}, {"name": "StatefulPartitionedCall/sequential_1/hard_swish_10/add", "op": "AddV2", "input": ["StatefulPartitionedCall/sequential_1/inverted_residual_block_with_se_8/add", "StatefulPartitionedCall/sequential_1/hard_swish_10/add/y"], "attr": {"T": {"type": "DT_FLOAT"}}}, {"name": "StatefulPartitionedCall/sequential_1/hard_swish_10/Relu6", "op": "Relu6", "input": ["StatefulPartitionedCall/sequential_1/hard_swish_10/add"], "attr": {"T": {"type": "DT_FLOAT"}}}, {"name": "StatefulPartitionedCall/sequential_1/hard_swish_10/mul", "op": "Mul", "input": ["StatefulPartitionedCall/sequential_1/hard_swish_10/truediv", "StatefulPartitionedCall/sequential_1/hard_swish_10/Relu6"], "attr": {"T": {"type": "DT_FLOAT"}, "_grappler_ArithmeticOptimizer_MinimizeBroadcasts": {"b": true}}}, {"name": "StatefulPartitionedCall/sequential_1/inverted_residual_block_with_se_9/Relu_1", "op": "_FusedConv2D", "input": ["StatefulPartitionedCall/sequential_1/hard_swish_10/mul", "StatefulPartitionedCall/sequential_1/inverted_residual_block_with_se_9/Conv2D_1/Conv2D_weights", "StatefulPartitionedCall/sequential_1/inverted_residual_block_with_se_9/Conv2D_1/Conv2D_bn_offset"], "device": "/device:CPU:0", "attr": {"use_cudnn_on_gpu": {"b": true}, "padding": {"s": "U0FNRQ=="}, "T": {"type": "DT_FLOAT"}, "strides": {"list": {"i": ["1", "1", "1", "1"]}}, "fused_ops": {"list": {"s": ["Qmlhc0FkZA==", "UmVsdQ=="]}}, "data_format": {"s": "TkhXQw=="}, "dilations": {"list": {"i": ["1", "1", "1", "1"]}}, "explicit_paddings": {"list": {}}, "epsilon": {"f": 0.0}, "num_args": {"i": "1"}}}, {"name": "StatefulPartitionedCall/sequential_1/inverted_residual_block_with_se_9/DConv2D_1/depthwise", "op": "FusedDepthwiseConv2dNative", "input": ["StatefulPartitionedCall/sequential_1/inverted_residual_block_with_se_9/Relu_1", "StatefulPartitionedCall/sequential_1/inverted_residual_block_with_se_9/DConv2D_1/depthwise_weights", "StatefulPartitionedCall/sequential_1/inverted_residual_block_with_se_9/DConv2D_1/depthwise_bn_offset"], "attr": {"data_format": {"s": "TkhXQw=="}, "strides": {"list": {"i": ["1", "1", "1", "1"]}}, "dilations": {"list": {"i": ["1", "1", "1", "1"]}}, "explicit_paddings": {"list": {}}, "padding": {"s": "U0FNRQ=="}, "T": {"type": "DT_FLOAT"}, "fused_ops": {"list": {"s": ["Qmlhc0FkZA==", "UmVsdQ=="]}}, "num_args": {"i": "1"}}}, {"name": "StatefulPartitionedCall/sequential_1/inverted_residual_block_with_se_9/SE_1/GAP_1/Mean", "op": "Mean", "input": ["StatefulPartitionedCall/sequential_1/inverted_residual_block_with_se_9/DConv2D_1/depthwise", "StatefulPartitionedCall/sequential_1/inverted_residual_block_with_se_9/SE_1/GAP_1/Mean/reduction_indices"], "attr": {"T": {"type": "DT_FLOAT"}, "Tidx": {"type": "DT_INT32"}, "keep_dims": {"b": false}}}, {"name": "StatefulPartitionedCall/sequential_1/inverted_residual_block_with_se_9/SE_1/Dense_1/Relu", "op": "_FusedMatMul", "input": ["StatefulPartitionedCall/sequential_1/inverted_residual_block_with_se_9/SE_1/GAP_1/Mean", "StatefulPartitionedCall/sequential_1/inverted_residual_block_with_se_9/SE_1/Dense_1/MatMul/ReadVariableOp", "StatefulPartitionedCall/sequential_1/inverted_residual_block_with_se_9/SE_1/Dense_1/BiasAdd/ReadVariableOp"], "device": "/device:CPU:0", "attr": {"num_args": {"i": "1"}, "transpose_a": {"b": false}, "epsilon": {"f": 0.0}, "fused_ops": {"list": {"s": ["Qmlhc0FkZA==", "UmVsdQ=="]}}, "T": {"type": "DT_FLOAT"}, "transpose_b": {"b": false}}}, {"name": "StatefulPartitionedCall/sequential_1/inverted_residual_block_with_se_9/SE_1/Dense_1/BiasAdd_1", "op": "_FusedMatMul", "input": ["StatefulPartitionedCall/sequential_1/inverted_residual_block_with_se_9/SE_1/Dense_1/Relu", "StatefulPartitionedCall/sequential_1/inverted_residual_block_with_se_9/SE_1/Dense_1/MatMul_1/ReadVariableOp", "StatefulPartitionedCall/sequential_1/inverted_residual_block_with_se_9/SE_1/Dense_1/BiasAdd_1/ReadVariableOp"], "device": "/device:CPU:0", "attr": {"num_args": {"i": "1"}, "T": {"type": "DT_FLOAT"}, "transpose_a": {"b": false}, "epsilon": {"f": 0.0}, "transpose_b": {"b": false}, "fused_ops": {"list": {"s": ["Qmlhc0FkZA=="]}}}}, {"name": "StatefulPartitionedCall/sequential_1/inverted_residual_block_with_se_9/SE_1/Dense_1/Sigmoid", "op": "Sigmoid", "input": ["StatefulPartitionedCall/sequential_1/inverted_residual_block_with_se_9/SE_1/Dense_1/BiasAdd_1"], "attr": {"T": {"type": "DT_FLOAT"}}}, {"name": "StatefulPartitionedCall/sequential_1/inverted_residual_block_with_se_9/SE_1/Mul_1/ExpandDims", "op": "ExpandDims", "input": ["StatefulPartitionedCall/sequential_1/inverted_residual_block_with_se_9/SE_1/Dense_1/Sigmoid", "StatefulPartitionedCall/sequential_1/inverted_residual_block_with_se_9/SE_1/Mul_1/ExpandDims/dim"], "attr": {"Tdim": {"type": "DT_INT32"}, "T": {"type": "DT_FLOAT"}}}, {"name": "StatefulPartitionedCall/sequential_1/inverted_residual_block_with_se_9/SE_1/Mul_1/ExpandDims_1", "op": "ExpandDims", "input": ["StatefulPartitionedCall/sequential_1/inverted_residual_block_with_se_9/SE_1/Mul_1/ExpandDims", "StatefulPartitionedCall/sequential_1/inverted_residual_block_with_se_9/SE_1/Mul_1/ExpandDims_1/dim"], "attr": {"Tdim": {"type": "DT_INT32"}, "T": {"type": "DT_FLOAT"}}}, {"name": "StatefulPartitionedCall/sequential_1/inverted_residual_block_with_se_9/SE_1/Mul_1/mul", "op": "Mul", "input": ["StatefulPartitionedCall/sequential_1/inverted_residual_block_with_se_9/DConv2D_1/depthwise", "StatefulPartitionedCall/sequential_1/inverted_residual_block_with_se_9/SE_1/Mul_1/ExpandDims_1"], "attr": {"T": {"type": "DT_FLOAT"}}}, {"name": "StatefulPartitionedCall/sequential_1/inverted_residual_block_with_se_9/Relu_3", "op": "_FusedConv2D", "input": ["StatefulPartitionedCall/sequential_1/inverted_residual_block_with_se_9/SE_1/Mul_1/mul", "StatefulPartitionedCall/sequential_1/inverted_residual_block_with_se_9/Conv2D_2/Conv2D_weights", "StatefulPartitionedCall/sequential_1/inverted_residual_block_with_se_9/Conv2D_2/Conv2D_bn_offset"], "device": "/device:CPU:0", "attr": {"T": {"type": "DT_FLOAT"}, "dilations": {"list": {"i": ["1", "1", "1", "1"]}}, "data_format": {"s": "TkhXQw=="}, "epsilon": {"f": 0.0}, "num_args": {"i": "1"}, "padding": {"s": "U0FNRQ=="}, "use_cudnn_on_gpu": {"b": true}, "explicit_paddings": {"list": {}}, "fused_ops": {"list": {"s": ["Qmlhc0FkZA==", "UmVsdQ=="]}}, "strides": {"list": {"i": ["1", "1", "1", "1"]}}}}, {"name": "StatefulPartitionedCall/sequential_1/inverted_residual_block_with_se_9/add", "op": "AddV2", "input": ["StatefulPartitionedCall/sequential_1/inverted_residual_block_with_se_9/Relu_3", "StatefulPartitionedCall/sequential_1/hard_swish_10/mul"], "attr": {"T": {"type": "DT_FLOAT"}}}, {"name": "StatefulPartitionedCall/sequential_1/hard_swish_11/truediv", "op": "Mul", "input": ["ConstantFolding/StatefulPartitionedCall/sequential_1/hard_swish_11/truediv_recip", "StatefulPartitionedCall/sequential_1/inverted_residual_block_with_se_9/add"], "attr": {"T": {"type": "DT_FLOAT"}, "_grappler_ArithmeticOptimizer_MinimizeBroadcasts": {"b": true}}}, {"name": "StatefulPartitionedCall/sequential_1/hard_swish_11/add", "op": "AddV2", "input": ["StatefulPartitionedCall/sequential_1/inverted_residual_block_with_se_9/add", "StatefulPartitionedCall/sequential_1/hard_swish_11/add/y"], "attr": {"T": {"type": "DT_FLOAT"}}}, {"name": "StatefulPartitionedCall/sequential_1/hard_swish_11/Relu6", "op": "Relu6", "input": ["StatefulPartitionedCall/sequential_1/hard_swish_11/add"], "attr": {"T": {"type": "DT_FLOAT"}}}, {"name": "StatefulPartitionedCall/sequential_1/hard_swish_11/mul", "op": "Mul", "input": ["StatefulPartitionedCall/sequential_1/hard_swish_11/truediv", "StatefulPartitionedCall/sequential_1/hard_swish_11/Relu6"], "attr": {"T": {"type": "DT_FLOAT"}, "_grappler_ArithmeticOptimizer_MinimizeBroadcasts": {"b": true}}}, {"name": "StatefulPartitionedCall/sequential_1/inverted_residual_block_with_se_10/BN_1/FusedBatchNormV3", "op": "_FusedConv2D", "input": ["StatefulPartitionedCall/sequential_1/hard_swish_11/mul", "StatefulPartitionedCall/sequential_1/inverted_residual_block_with_se_10/Conv2D_1/Conv2D_weights", "StatefulPartitionedCall/sequential_1/inverted_residual_block_with_se_10/Conv2D_1/Conv2D_bn_offset"], "device": "/device:CPU:0", "attr": {"fused_ops": {"list": {"s": ["Qmlhc0FkZA=="]}}, "epsilon": {"f": 0.0}, "padding": {"s": "U0FNRQ=="}, "num_args": {"i": "1"}, "strides": {"list": {"i": ["1", "1", "1", "1"]}}, "dilations": {"list": {"i": ["1", "1", "1", "1"]}}, "explicit_paddings": {"list": {}}, "data_format": {"s": "TkhXQw=="}, "use_cudnn_on_gpu": {"b": true}, "T": {"type": "DT_FLOAT"}}}, {"name": "StatefulPartitionedCall/sequential_1/inverted_residual_block_with_se_10/Relu_1", "op": "Relu", "input": ["StatefulPartitionedCall/sequential_1/inverted_residual_block_with_se_10/BN_1/FusedBatchNormV3"], "attr": {"T": {"type": "DT_FLOAT"}}}, {"name": "StatefulPartitionedCall/sequential_1/inverted_residual_block_with_se_10/Relu", "op": "Relu", "input": ["StatefulPartitionedCall/sequential_1/inverted_residual_block_with_se_10/BN_1/FusedBatchNormV3"], "attr": {"T": {"type": "DT_FLOAT"}}}, {"name": "StatefulPartitionedCall/sequential_1/inverted_residual_block_with_se_10/DConv2D_1/depthwise", "op": "FusedDepthwiseConv2dNative", "input": ["StatefulPartitionedCall/sequential_1/inverted_residual_block_with_se_10/Relu_1", "StatefulPartitionedCall/sequential_1/inverted_residual_block_with_se_10/DConv2D_1/depthwise_weights", "StatefulPartitionedCall/sequential_1/inverted_residual_block_with_se_10/DConv2D_1/depthwise_bn_offset"], "attr": {"fused_ops": {"list": {"s": ["Qmlhc0FkZA==", "UmVsdQ=="]}}, "padding": {"s": "U0FNRQ=="}, "explicit_paddings": {"list": {}}, "strides": {"list": {"i": ["1", "2", "2", "1"]}}, "dilations": {"list": {"i": ["1", "1", "1", "1"]}}, "data_format": {"s": "TkhXQw=="}, "T": {"type": "DT_FLOAT"}, "num_args": {"i": "1"}}}, {"name": "StatefulPartitionedCall/sequential_1/inverted_residual_block_with_se_10/Conv2D_3/BiasAdd", "op": "_FusedConv2D", "input": ["StatefulPartitionedCall/sequential_1/inverted_residual_block_with_se_10/Relu", "StatefulPartitionedCall/sequential_1/inverted_residual_block_with_se_10/Conv2D_3/Conv2D/ReadVariableOp", "StatefulPartitionedCall/sequential_1/inverted_residual_block_with_se_10/Conv2D_3/BiasAdd/ReadVariableOp"], "device": "/device:CPU:0", "attr": {"T": {"type": "DT_FLOAT"}, "data_format": {"s": "TkhXQw=="}, "padding": {"s": "U0FNRQ=="}, "fused_ops": {"list": {"s": ["Qmlhc0FkZA=="]}}, "dilations": {"list": {"i": ["1", "1", "1", "1"]}}, "num_args": {"i": "1"}, "explicit_paddings": {"list": {}}, "strides": {"list": {"i": ["1", "2", "2", "1"]}}, "epsilon": {"f": 0.0}, "use_cudnn_on_gpu": {"b": true}}}, {"name": "StatefulPartitionedCall/sequential_1/inverted_residual_block_with_se_10/SE_1/GAP_1/Mean", "op": "Mean", "input": ["StatefulPartitionedCall/sequential_1/inverted_residual_block_with_se_10/DConv2D_1/depthwise", "StatefulPartitionedCall/sequential_1/inverted_residual_block_with_se_10/SE_1/GAP_1/Mean/reduction_indices"], "attr": {"keep_dims": {"b": false}, "T": {"type": "DT_FLOAT"}, "Tidx": {"type": "DT_INT32"}}}, {"name": "StatefulPartitionedCall/sequential_1/inverted_residual_block_with_se_10/SE_1/Dense_1/Relu", "op": "_FusedMatMul", "input": ["StatefulPartitionedCall/sequential_1/inverted_residual_block_with_se_10/SE_1/GAP_1/Mean", "StatefulPartitionedCall/sequential_1/inverted_residual_block_with_se_10/SE_1/Dense_1/MatMul/ReadVariableOp", "StatefulPartitionedCall/sequential_1/inverted_residual_block_with_se_10/SE_1/Dense_1/BiasAdd/ReadVariableOp"], "device": "/device:CPU:0", "attr": {"transpose_a": {"b": false}, "epsilon": {"f": 0.0}, "transpose_b": {"b": false}, "fused_ops": {"list": {"s": ["Qmlhc0FkZA==", "UmVsdQ=="]}}, "T": {"type": "DT_FLOAT"}, "num_args": {"i": "1"}}}, {"name": "StatefulPartitionedCall/sequential_1/inverted_residual_block_with_se_10/SE_1/Dense_1/BiasAdd_1", "op": "_FusedMatMul", "input": ["StatefulPartitionedCall/sequential_1/inverted_residual_block_with_se_10/SE_1/Dense_1/Relu", "StatefulPartitionedCall/sequential_1/inverted_residual_block_with_se_10/SE_1/Dense_1/MatMul_1/ReadVariableOp", "StatefulPartitionedCall/sequential_1/inverted_residual_block_with_se_10/SE_1/Dense_1/BiasAdd_1/ReadVariableOp"], "device": "/device:CPU:0", "attr": {"transpose_a": {"b": false}, "epsilon": {"f": 0.0}, "num_args": {"i": "1"}, "fused_ops": {"list": {"s": ["Qmlhc0FkZA=="]}}, "transpose_b": {"b": false}, "T": {"type": "DT_FLOAT"}}}, {"name": "StatefulPartitionedCall/sequential_1/inverted_residual_block_with_se_10/SE_1/Dense_1/Sigmoid", "op": "Sigmoid", "input": ["StatefulPartitionedCall/sequential_1/inverted_residual_block_with_se_10/SE_1/Dense_1/BiasAdd_1"], "attr": {"T": {"type": "DT_FLOAT"}}}, {"name": "StatefulPartitionedCall/sequential_1/inverted_residual_block_with_se_10/SE_1/Mul_1/ExpandDims", "op": "ExpandDims", "input": ["StatefulPartitionedCall/sequential_1/inverted_residual_block_with_se_10/SE_1/Dense_1/Sigmoid", "StatefulPartitionedCall/sequential_1/inverted_residual_block_with_se_10/SE_1/Mul_1/ExpandDims/dim"], "attr": {"Tdim": {"type": "DT_INT32"}, "T": {"type": "DT_FLOAT"}}}, {"name": "StatefulPartitionedCall/sequential_1/inverted_residual_block_with_se_10/SE_1/Mul_1/ExpandDims_1", "op": "ExpandDims", "input": ["StatefulPartitionedCall/sequential_1/inverted_residual_block_with_se_10/SE_1/Mul_1/ExpandDims", "StatefulPartitionedCall/sequential_1/inverted_residual_block_with_se_10/SE_1/Mul_1/ExpandDims_1/dim"], "attr": {"T": {"type": "DT_FLOAT"}, "Tdim": {"type": "DT_INT32"}}}, {"name": "StatefulPartitionedCall/sequential_1/inverted_residual_block_with_se_10/SE_1/Mul_1/mul", "op": "Mul", "input": ["StatefulPartitionedCall/sequential_1/inverted_residual_block_with_se_10/DConv2D_1/depthwise", "StatefulPartitionedCall/sequential_1/inverted_residual_block_with_se_10/SE_1/Mul_1/ExpandDims_1"], "attr": {"T": {"type": "DT_FLOAT"}}}, {"name": "StatefulPartitionedCall/sequential_1/inverted_residual_block_with_se_10/Relu_3", "op": "_FusedConv2D", "input": ["StatefulPartitionedCall/sequential_1/inverted_residual_block_with_se_10/SE_1/Mul_1/mul", "StatefulPartitionedCall/sequential_1/inverted_residual_block_with_se_10/Conv2D_2/Conv2D_weights", "StatefulPartitionedCall/sequential_1/inverted_residual_block_with_se_10/Conv2D_2/Conv2D_bn_offset"], "device": "/device:CPU:0", "attr": {"fused_ops": {"list": {"s": ["Qmlhc0FkZA==", "UmVsdQ=="]}}, "use_cudnn_on_gpu": {"b": true}, "strides": {"list": {"i": ["1", "1", "1", "1"]}}, "explicit_paddings": {"list": {}}, "epsilon": {"f": 0.0}, "T": {"type": "DT_FLOAT"}, "padding": {"s": "U0FNRQ=="}, "data_format": {"s": "TkhXQw=="}, "num_args": {"i": "1"}, "dilations": {"list": {"i": ["1", "1", "1", "1"]}}}}, {"name": "StatefulPartitionedCall/sequential_1/inverted_residual_block_with_se_10/add", "op": "AddV2", "input": ["StatefulPartitionedCall/sequential_1/inverted_residual_block_with_se_10/Relu_3", "StatefulPartitionedCall/sequential_1/inverted_residual_block_with_se_10/Conv2D_3/BiasAdd"], "attr": {"T": {"type": "DT_FLOAT"}}}, {"name": "StatefulPartitionedCall/sequential_1/hard_swish_12/truediv", "op": "Mul", "input": ["ConstantFolding/StatefulPartitionedCall/sequential_1/hard_swish_12/truediv_recip", "StatefulPartitionedCall/sequential_1/inverted_residual_block_with_se_10/add"], "attr": {"T": {"type": "DT_FLOAT"}, "_grappler_ArithmeticOptimizer_MinimizeBroadcasts": {"b": true}}}, {"name": "StatefulPartitionedCall/sequential_1/hard_swish_12/add", "op": "AddV2", "input": ["StatefulPartitionedCall/sequential_1/inverted_residual_block_with_se_10/add", "StatefulPartitionedCall/sequential_1/hard_swish_12/add/y"], "attr": {"T": {"type": "DT_FLOAT"}}}, {"name": "StatefulPartitionedCall/sequential_1/hard_swish_12/Relu6", "op": "Relu6", "input": ["StatefulPartitionedCall/sequential_1/hard_swish_12/add"], "attr": {"T": {"type": "DT_FLOAT"}}}, {"name": "StatefulPartitionedCall/sequential_1/hard_swish_12/mul", "op": "Mul", "input": ["StatefulPartitionedCall/sequential_1/hard_swish_12/truediv", "StatefulPartitionedCall/sequential_1/hard_swish_12/Relu6"], "attr": {"_grappler_ArithmeticOptimizer_MinimizeBroadcasts": {"b": true}, "T": {"type": "DT_FLOAT"}}}, {"name": "StatefulPartitionedCall/sequential_1/inverted_residual_block_with_se_11/Relu_1", "op": "_FusedConv2D", "input": ["StatefulPartitionedCall/sequential_1/hard_swish_12/mul", "StatefulPartitionedCall/sequential_1/inverted_residual_block_with_se_11/Conv2D_1/Conv2D_weights", "StatefulPartitionedCall/sequential_1/inverted_residual_block_with_se_11/Conv2D_1/Conv2D_bn_offset"], "device": "/device:CPU:0", "attr": {"epsilon": {"f": 0.0}, "fused_ops": {"list": {"s": ["Qmlhc0FkZA==", "UmVsdQ=="]}}, "strides": {"list": {"i": ["1", "1", "1", "1"]}}, "use_cudnn_on_gpu": {"b": true}, "data_format": {"s": "TkhXQw=="}, "dilations": {"list": {"i": ["1", "1", "1", "1"]}}, "num_args": {"i": "1"}, "T": {"type": "DT_FLOAT"}, "explicit_paddings": {"list": {}}, "padding": {"s": "U0FNRQ=="}}}, {"name": "StatefulPartitionedCall/sequential_1/inverted_residual_block_with_se_11/DConv2D_1/depthwise", "op": "FusedDepthwiseConv2dNative", "input": ["StatefulPartitionedCall/sequential_1/inverted_residual_block_with_se_11/Relu_1", "StatefulPartitionedCall/sequential_1/inverted_residual_block_with_se_11/DConv2D_1/depthwise_weights", "StatefulPartitionedCall/sequential_1/inverted_residual_block_with_se_11/DConv2D_1/depthwise_bn_offset"], "attr": {"explicit_paddings": {"list": {}}, "fused_ops": {"list": {"s": ["Qmlhc0FkZA==", "UmVsdQ=="]}}, "data_format": {"s": "TkhXQw=="}, "dilations": {"list": {"i": ["1", "1", "1", "1"]}}, "T": {"type": "DT_FLOAT"}, "num_args": {"i": "1"}, "strides": {"list": {"i": ["1", "1", "1", "1"]}}, "padding": {"s": "U0FNRQ=="}}}, {"name": "StatefulPartitionedCall/sequential_1/inverted_residual_block_with_se_11/SE_1/GAP_1/Mean", "op": "Mean", "input": ["StatefulPartitionedCall/sequential_1/inverted_residual_block_with_se_11/DConv2D_1/depthwise", "StatefulPartitionedCall/sequential_1/inverted_residual_block_with_se_11/SE_1/GAP_1/Mean/reduction_indices"], "attr": {"keep_dims": {"b": false}, "T": {"type": "DT_FLOAT"}, "Tidx": {"type": "DT_INT32"}}}, {"name": "StatefulPartitionedCall/sequential_1/inverted_residual_block_with_se_11/SE_1/Dense_1/Relu", "op": "_FusedMatMul", "input": ["StatefulPartitionedCall/sequential_1/inverted_residual_block_with_se_11/SE_1/GAP_1/Mean", "StatefulPartitionedCall/sequential_1/inverted_residual_block_with_se_11/SE_1/Dense_1/MatMul/ReadVariableOp", "StatefulPartitionedCall/sequential_1/inverted_residual_block_with_se_11/SE_1/Dense_1/BiasAdd/ReadVariableOp"], "device": "/device:CPU:0", "attr": {"epsilon": {"f": 0.0}, "transpose_b": {"b": false}, "transpose_a": {"b": false}, "num_args": {"i": "1"}, "fused_ops": {"list": {"s": ["Qmlhc0FkZA==", "UmVsdQ=="]}}, "T": {"type": "DT_FLOAT"}}}, {"name": "StatefulPartitionedCall/sequential_1/inverted_residual_block_with_se_11/SE_1/Dense_1/BiasAdd_1", "op": "_FusedMatMul", "input": ["StatefulPartitionedCall/sequential_1/inverted_residual_block_with_se_11/SE_1/Dense_1/Relu", "StatefulPartitionedCall/sequential_1/inverted_residual_block_with_se_11/SE_1/Dense_1/MatMul_1/ReadVariableOp", "StatefulPartitionedCall/sequential_1/inverted_residual_block_with_se_11/SE_1/Dense_1/BiasAdd_1/ReadVariableOp"], "device": "/device:CPU:0", "attr": {"transpose_b": {"b": false}, "transpose_a": {"b": false}, "num_args": {"i": "1"}, "fused_ops": {"list": {"s": ["Qmlhc0FkZA=="]}}, "epsilon": {"f": 0.0}, "T": {"type": "DT_FLOAT"}}}, {"name": "StatefulPartitionedCall/sequential_1/inverted_residual_block_with_se_11/SE_1/Dense_1/Sigmoid", "op": "Sigmoid", "input": ["StatefulPartitionedCall/sequential_1/inverted_residual_block_with_se_11/SE_1/Dense_1/BiasAdd_1"], "attr": {"T": {"type": "DT_FLOAT"}}}, {"name": "StatefulPartitionedCall/sequential_1/inverted_residual_block_with_se_11/SE_1/Mul_1/ExpandDims", "op": "ExpandDims", "input": ["StatefulPartitionedCall/sequential_1/inverted_residual_block_with_se_11/SE_1/Dense_1/Sigmoid", "StatefulPartitionedCall/sequential_1/inverted_residual_block_with_se_11/SE_1/Mul_1/ExpandDims/dim"], "attr": {"Tdim": {"type": "DT_INT32"}, "T": {"type": "DT_FLOAT"}}}, {"name": "StatefulPartitionedCall/sequential_1/inverted_residual_block_with_se_11/SE_1/Mul_1/ExpandDims_1", "op": "ExpandDims", "input": ["StatefulPartitionedCall/sequential_1/inverted_residual_block_with_se_11/SE_1/Mul_1/ExpandDims", "StatefulPartitionedCall/sequential_1/inverted_residual_block_with_se_11/SE_1/Mul_1/ExpandDims_1/dim"], "attr": {"T": {"type": "DT_FLOAT"}, "Tdim": {"type": "DT_INT32"}}}, {"name": "StatefulPartitionedCall/sequential_1/inverted_residual_block_with_se_11/SE_1/Mul_1/mul", "op": "Mul", "input": ["StatefulPartitionedCall/sequential_1/inverted_residual_block_with_se_11/DConv2D_1/depthwise", "StatefulPartitionedCall/sequential_1/inverted_residual_block_with_se_11/SE_1/Mul_1/ExpandDims_1"], "attr": {"T": {"type": "DT_FLOAT"}}}, {"name": "StatefulPartitionedCall/sequential_1/inverted_residual_block_with_se_11/Relu_3", "op": "_FusedConv2D", "input": ["StatefulPartitionedCall/sequential_1/inverted_residual_block_with_se_11/SE_1/Mul_1/mul", "StatefulPartitionedCall/sequential_1/inverted_residual_block_with_se_11/Conv2D_2/Conv2D_weights", "StatefulPartitionedCall/sequential_1/inverted_residual_block_with_se_11/Conv2D_2/Conv2D_bn_offset"], "device": "/device:CPU:0", "attr": {"use_cudnn_on_gpu": {"b": true}, "strides": {"list": {"i": ["1", "1", "1", "1"]}}, "fused_ops": {"list": {"s": ["Qmlhc0FkZA==", "UmVsdQ=="]}}, "epsilon": {"f": 0.0}, "T": {"type": "DT_FLOAT"}, "padding": {"s": "U0FNRQ=="}, "num_args": {"i": "1"}, "explicit_paddings": {"list": {}}, "data_format": {"s": "TkhXQw=="}, "dilations": {"list": {"i": ["1", "1", "1", "1"]}}}}, {"name": "StatefulPartitionedCall/sequential_1/inverted_residual_block_with_se_11/add", "op": "AddV2", "input": ["StatefulPartitionedCall/sequential_1/inverted_residual_block_with_se_11/Relu_3", "StatefulPartitionedCall/sequential_1/hard_swish_12/mul"], "attr": {"T": {"type": "DT_FLOAT"}}}, {"name": "StatefulPartitionedCall/sequential_1/hard_swish_13/truediv", "op": "Mul", "input": ["ConstantFolding/StatefulPartitionedCall/sequential_1/hard_swish_13/truediv_recip", "StatefulPartitionedCall/sequential_1/inverted_residual_block_with_se_11/add"], "attr": {"T": {"type": "DT_FLOAT"}, "_grappler_ArithmeticOptimizer_MinimizeBroadcasts": {"b": true}}}, {"name": "StatefulPartitionedCall/sequential_1/hard_swish_13/add", "op": "AddV2", "input": ["StatefulPartitionedCall/sequential_1/inverted_residual_block_with_se_11/add", "StatefulPartitionedCall/sequential_1/hard_swish_13/add/y"], "attr": {"T": {"type": "DT_FLOAT"}}}, {"name": "StatefulPartitionedCall/sequential_1/hard_swish_13/Relu6", "op": "Relu6", "input": ["StatefulPartitionedCall/sequential_1/hard_swish_13/add"], "attr": {"T": {"type": "DT_FLOAT"}}}, {"name": "StatefulPartitionedCall/sequential_1/hard_swish_13/mul", "op": "Mul", "input": ["StatefulPartitionedCall/sequential_1/hard_swish_13/truediv", "StatefulPartitionedCall/sequential_1/hard_swish_13/Relu6"], "attr": {"_grappler_ArithmeticOptimizer_MinimizeBroadcasts": {"b": true}, "T": {"type": "DT_FLOAT"}}}, {"name": "StatefulPartitionedCall/sequential_1/inverted_residual_block_with_se_12/BN_1/FusedBatchNormV3", "op": "_FusedConv2D", "input": ["StatefulPartitionedCall/sequential_1/hard_swish_13/mul", "StatefulPartitionedCall/sequential_1/inverted_residual_block_with_se_12/Conv2D_1/Conv2D_weights", "StatefulPartitionedCall/sequential_1/inverted_residual_block_with_se_12/Conv2D_1/Conv2D_bn_offset"], "device": "/device:CPU:0", "attr": {"epsilon": {"f": 0.0}, "fused_ops": {"list": {"s": ["Qmlhc0FkZA=="]}}, "use_cudnn_on_gpu": {"b": true}, "T": {"type": "DT_FLOAT"}, "data_format": {"s": "TkhXQw=="}, "dilations": {"list": {"i": ["1", "1", "1", "1"]}}, "explicit_paddings": {"list": {}}, "num_args": {"i": "1"}, "padding": {"s": "U0FNRQ=="}, "strides": {"list": {"i": ["1", "1", "1", "1"]}}}}, {"name": "StatefulPartitionedCall/sequential_1/inverted_residual_block_with_se_12/Relu_1", "op": "Relu", "input": ["StatefulPartitionedCall/sequential_1/inverted_residual_block_with_se_12/BN_1/FusedBatchNormV3"], "attr": {"T": {"type": "DT_FLOAT"}}}, {"name": "StatefulPartitionedCall/sequential_1/inverted_residual_block_with_se_12/Relu", "op": "Relu", "input": ["StatefulPartitionedCall/sequential_1/inverted_residual_block_with_se_12/BN_1/FusedBatchNormV3"], "attr": {"T": {"type": "DT_FLOAT"}}}, {"name": "StatefulPartitionedCall/sequential_1/inverted_residual_block_with_se_12/DConv2D_1/depthwise", "op": "FusedDepthwiseConv2dNative", "input": ["StatefulPartitionedCall/sequential_1/inverted_residual_block_with_se_12/Relu_1", "StatefulPartitionedCall/sequential_1/inverted_residual_block_with_se_12/DConv2D_1/depthwise_weights", "StatefulPartitionedCall/sequential_1/inverted_residual_block_with_se_12/DConv2D_1/depthwise_bn_offset"], "attr": {"padding": {"s": "U0FNRQ=="}, "num_args": {"i": "1"}, "data_format": {"s": "TkhXQw=="}, "explicit_paddings": {"list": {}}, "fused_ops": {"list": {"s": ["Qmlhc0FkZA==", "UmVsdQ=="]}}, "dilations": {"list": {"i": ["1", "1", "1", "1"]}}, "strides": {"list": {"i": ["1", "2", "2", "1"]}}, "T": {"type": "DT_FLOAT"}}}, {"name": "StatefulPartitionedCall/sequential_1/inverted_residual_block_with_se_12/Conv2D_3/BiasAdd", "op": "_FusedConv2D", "input": ["StatefulPartitionedCall/sequential_1/inverted_residual_block_with_se_12/Relu", "StatefulPartitionedCall/sequential_1/inverted_residual_block_with_se_12/Conv2D_3/Conv2D/ReadVariableOp", "StatefulPartitionedCall/sequential_1/inverted_residual_block_with_se_12/Conv2D_3/BiasAdd/ReadVariableOp"], "device": "/device:CPU:0", "attr": {"explicit_paddings": {"list": {}}, "num_args": {"i": "1"}, "dilations": {"list": {"i": ["1", "1", "1", "1"]}}, "fused_ops": {"list": {"s": ["Qmlhc0FkZA=="]}}, "use_cudnn_on_gpu": {"b": true}, "data_format": {"s": "TkhXQw=="}, "strides": {"list": {"i": ["1", "2", "2", "1"]}}, "padding": {"s": "U0FNRQ=="}, "epsilon": {"f": 0.0}, "T": {"type": "DT_FLOAT"}}}, {"name": "StatefulPartitionedCall/sequential_1/inverted_residual_block_with_se_12/SE_1/GAP_1/Mean", "op": "Mean", "input": ["StatefulPartitionedCall/sequential_1/inverted_residual_block_with_se_12/DConv2D_1/depthwise", "StatefulPartitionedCall/sequential_1/inverted_residual_block_with_se_12/SE_1/GAP_1/Mean/reduction_indices"], "attr": {"T": {"type": "DT_FLOAT"}, "keep_dims": {"b": false}, "Tidx": {"type": "DT_INT32"}}}, {"name": "StatefulPartitionedCall/sequential_1/inverted_residual_block_with_se_12/SE_1/Dense_1/Relu", "op": "_FusedMatMul", "input": ["StatefulPartitionedCall/sequential_1/inverted_residual_block_with_se_12/SE_1/GAP_1/Mean", "StatefulPartitionedCall/sequential_1/inverted_residual_block_with_se_12/SE_1/Dense_1/MatMul/ReadVariableOp", "StatefulPartitionedCall/sequential_1/inverted_residual_block_with_se_12/SE_1/Dense_1/BiasAdd/ReadVariableOp"], "device": "/device:CPU:0", "attr": {"num_args": {"i": "1"}, "T": {"type": "DT_FLOAT"}, "epsilon": {"f": 0.0}, "transpose_b": {"b": false}, "transpose_a": {"b": false}, "fused_ops": {"list": {"s": ["Qmlhc0FkZA==", "UmVsdQ=="]}}}}, {"name": "StatefulPartitionedCall/sequential_1/inverted_residual_block_with_se_12/SE_1/Dense_1/BiasAdd_1", "op": "_FusedMatMul", "input": ["StatefulPartitionedCall/sequential_1/inverted_residual_block_with_se_12/SE_1/Dense_1/Relu", "StatefulPartitionedCall/sequential_1/inverted_residual_block_with_se_12/SE_1/Dense_1/MatMul_1/ReadVariableOp", "StatefulPartitionedCall/sequential_1/inverted_residual_block_with_se_12/SE_1/Dense_1/BiasAdd_1/ReadVariableOp"], "device": "/device:CPU:0", "attr": {"transpose_a": {"b": false}, "num_args": {"i": "1"}, "epsilon": {"f": 0.0}, "T": {"type": "DT_FLOAT"}, "transpose_b": {"b": false}, "fused_ops": {"list": {"s": ["Qmlhc0FkZA=="]}}}}, {"name": "StatefulPartitionedCall/sequential_1/inverted_residual_block_with_se_12/SE_1/Dense_1/Sigmoid", "op": "Sigmoid", "input": ["StatefulPartitionedCall/sequential_1/inverted_residual_block_with_se_12/SE_1/Dense_1/BiasAdd_1"], "attr": {"T": {"type": "DT_FLOAT"}}}, {"name": "StatefulPartitionedCall/sequential_1/inverted_residual_block_with_se_12/SE_1/Mul_1/ExpandDims", "op": "ExpandDims", "input": ["StatefulPartitionedCall/sequential_1/inverted_residual_block_with_se_12/SE_1/Dense_1/Sigmoid", "StatefulPartitionedCall/sequential_1/inverted_residual_block_with_se_12/SE_1/Mul_1/ExpandDims/dim"], "attr": {"Tdim": {"type": "DT_INT32"}, "T": {"type": "DT_FLOAT"}}}, {"name": "StatefulPartitionedCall/sequential_1/inverted_residual_block_with_se_12/SE_1/Mul_1/ExpandDims_1", "op": "ExpandDims", "input": ["StatefulPartitionedCall/sequential_1/inverted_residual_block_with_se_12/SE_1/Mul_1/ExpandDims", "StatefulPartitionedCall/sequential_1/inverted_residual_block_with_se_12/SE_1/Mul_1/ExpandDims_1/dim"], "attr": {"Tdim": {"type": "DT_INT32"}, "T": {"type": "DT_FLOAT"}}}, {"name": "StatefulPartitionedCall/sequential_1/inverted_residual_block_with_se_12/SE_1/Mul_1/mul", "op": "Mul", "input": ["StatefulPartitionedCall/sequential_1/inverted_residual_block_with_se_12/DConv2D_1/depthwise", "StatefulPartitionedCall/sequential_1/inverted_residual_block_with_se_12/SE_1/Mul_1/ExpandDims_1"], "attr": {"T": {"type": "DT_FLOAT"}}}, {"name": "StatefulPartitionedCall/sequential_1/inverted_residual_block_with_se_12/Relu_3", "op": "_FusedConv2D", "input": ["StatefulPartitionedCall/sequential_1/inverted_residual_block_with_se_12/SE_1/Mul_1/mul", "StatefulPartitionedCall/sequential_1/inverted_residual_block_with_se_12/Conv2D_2/Conv2D_weights", "StatefulPartitionedCall/sequential_1/inverted_residual_block_with_se_12/Conv2D_2/Conv2D_bn_offset"], "device": "/device:CPU:0", "attr": {"epsilon": {"f": 0.0}, "padding": {"s": "U0FNRQ=="}, "dilations": {"list": {"i": ["1", "1", "1", "1"]}}, "explicit_paddings": {"list": {}}, "fused_ops": {"list": {"s": ["Qmlhc0FkZA==", "UmVsdQ=="]}}, "num_args": {"i": "1"}, "T": {"type": "DT_FLOAT"}, "use_cudnn_on_gpu": {"b": true}, "strides": {"list": {"i": ["1", "1", "1", "1"]}}, "data_format": {"s": "TkhXQw=="}}}, {"name": "StatefulPartitionedCall/sequential_1/inverted_residual_block_with_se_12/add", "op": "AddV2", "input": ["StatefulPartitionedCall/sequential_1/inverted_residual_block_with_se_12/Relu_3", "StatefulPartitionedCall/sequential_1/inverted_residual_block_with_se_12/Conv2D_3/BiasAdd"], "attr": {"T": {"type": "DT_FLOAT"}}}, {"name": "StatefulPartitionedCall/sequential_1/hard_swish_14/truediv", "op": "Mul", "input": ["ConstantFolding/StatefulPartitionedCall/sequential_1/hard_swish_14/truediv_recip", "StatefulPartitionedCall/sequential_1/inverted_residual_block_with_se_12/add"], "attr": {"T": {"type": "DT_FLOAT"}, "_grappler_ArithmeticOptimizer_MinimizeBroadcasts": {"b": true}}}, {"name": "StatefulPartitionedCall/sequential_1/hard_swish_14/add", "op": "AddV2", "input": ["StatefulPartitionedCall/sequential_1/inverted_residual_block_with_se_12/add", "StatefulPartitionedCall/sequential_1/hard_swish_14/add/y"], "attr": {"T": {"type": "DT_FLOAT"}}}, {"name": "StatefulPartitionedCall/sequential_1/hard_swish_14/Relu6", "op": "Relu6", "input": ["StatefulPartitionedCall/sequential_1/hard_swish_14/add"], "attr": {"T": {"type": "DT_FLOAT"}}}, {"name": "StatefulPartitionedCall/sequential_1/hard_swish_14/mul", "op": "Mul", "input": ["StatefulPartitionedCall/sequential_1/hard_swish_14/truediv", "StatefulPartitionedCall/sequential_1/hard_swish_14/Relu6"], "attr": {"T": {"type": "DT_FLOAT"}, "_grappler_ArithmeticOptimizer_MinimizeBroadcasts": {"b": true}}}, {"name": "StatefulPartitionedCall/sequential_1/inverted_residual_block_with_se_13/Relu_1", "op": "_FusedConv2D", "input": ["StatefulPartitionedCall/sequential_1/hard_swish_14/mul", "StatefulPartitionedCall/sequential_1/inverted_residual_block_with_se_13/Conv2D_1/Conv2D_weights", "StatefulPartitionedCall/sequential_1/inverted_residual_block_with_se_13/Conv2D_1/Conv2D_bn_offset"], "device": "/device:CPU:0", "attr": {"use_cudnn_on_gpu": {"b": true}, "T": {"type": "DT_FLOAT"}, "num_args": {"i": "1"}, "dilations": {"list": {"i": ["1", "1", "1", "1"]}}, "explicit_paddings": {"list": {}}, "epsilon": {"f": 0.0}, "strides": {"list": {"i": ["1", "1", "1", "1"]}}, "data_format": {"s": "TkhXQw=="}, "padding": {"s": "U0FNRQ=="}, "fused_ops": {"list": {"s": ["Qmlhc0FkZA==", "UmVsdQ=="]}}}}, {"name": "StatefulPartitionedCall/sequential_1/inverted_residual_block_with_se_13/DConv2D_1/depthwise", "op": "FusedDepthwiseConv2dNative", "input": ["StatefulPartitionedCall/sequential_1/inverted_residual_block_with_se_13/Relu_1", "StatefulPartitionedCall/sequential_1/inverted_residual_block_with_se_13/DConv2D_1/depthwise_weights", "StatefulPartitionedCall/sequential_1/inverted_residual_block_with_se_13/DConv2D_1/depthwise_bn_offset"], "attr": {"fused_ops": {"list": {"s": ["Qmlhc0FkZA==", "UmVsdQ=="]}}, "num_args": {"i": "1"}, "strides": {"list": {"i": ["1", "1", "1", "1"]}}, "padding": {"s": "U0FNRQ=="}, "T": {"type": "DT_FLOAT"}, "data_format": {"s": "TkhXQw=="}, "explicit_paddings": {"list": {}}, "dilations": {"list": {"i": ["1", "1", "1", "1"]}}}}, {"name": "StatefulPartitionedCall/sequential_1/inverted_residual_block_with_se_13/SE_1/GAP_1/Mean", "op": "Mean", "input": ["StatefulPartitionedCall/sequential_1/inverted_residual_block_with_se_13/DConv2D_1/depthwise", "StatefulPartitionedCall/sequential_1/inverted_residual_block_with_se_13/SE_1/GAP_1/Mean/reduction_indices"], "attr": {"keep_dims": {"b": false}, "T": {"type": "DT_FLOAT"}, "Tidx": {"type": "DT_INT32"}}}, {"name": "StatefulPartitionedCall/sequential_1/inverted_residual_block_with_se_13/SE_1/Dense_1/Relu", "op": "_FusedMatMul", "input": ["StatefulPartitionedCall/sequential_1/inverted_residual_block_with_se_13/SE_1/GAP_1/Mean", "StatefulPartitionedCall/sequential_1/inverted_residual_block_with_se_13/SE_1/Dense_1/MatMul/ReadVariableOp", "StatefulPartitionedCall/sequential_1/inverted_residual_block_with_se_13/SE_1/Dense_1/BiasAdd/ReadVariableOp"], "device": "/device:CPU:0", "attr": {"transpose_a": {"b": false}, "T": {"type": "DT_FLOAT"}, "epsilon": {"f": 0.0}, "num_args": {"i": "1"}, "transpose_b": {"b": false}, "fused_ops": {"list": {"s": ["Qmlhc0FkZA==", "UmVsdQ=="]}}}}, {"name": "StatefulPartitionedCall/sequential_1/inverted_residual_block_with_se_13/SE_1/Dense_1/BiasAdd_1", "op": "_FusedMatMul", "input": ["StatefulPartitionedCall/sequential_1/inverted_residual_block_with_se_13/SE_1/Dense_1/Relu", "StatefulPartitionedCall/sequential_1/inverted_residual_block_with_se_13/SE_1/Dense_1/MatMul_1/ReadVariableOp", "StatefulPartitionedCall/sequential_1/inverted_residual_block_with_se_13/SE_1/Dense_1/BiasAdd_1/ReadVariableOp"], "device": "/device:CPU:0", "attr": {"transpose_b": {"b": false}, "T": {"type": "DT_FLOAT"}, "transpose_a": {"b": false}, "num_args": {"i": "1"}, "epsilon": {"f": 0.0}, "fused_ops": {"list": {"s": ["Qmlhc0FkZA=="]}}}}, {"name": "StatefulPartitionedCall/sequential_1/inverted_residual_block_with_se_13/SE_1/Dense_1/Sigmoid", "op": "Sigmoid", "input": ["StatefulPartitionedCall/sequential_1/inverted_residual_block_with_se_13/SE_1/Dense_1/BiasAdd_1"], "attr": {"T": {"type": "DT_FLOAT"}}}, {"name": "StatefulPartitionedCall/sequential_1/inverted_residual_block_with_se_13/SE_1/Mul_1/ExpandDims", "op": "ExpandDims", "input": ["StatefulPartitionedCall/sequential_1/inverted_residual_block_with_se_13/SE_1/Dense_1/Sigmoid", "StatefulPartitionedCall/sequential_1/inverted_residual_block_with_se_13/SE_1/Mul_1/ExpandDims/dim"], "attr": {"T": {"type": "DT_FLOAT"}, "Tdim": {"type": "DT_INT32"}}}, {"name": "StatefulPartitionedCall/sequential_1/inverted_residual_block_with_se_13/SE_1/Mul_1/ExpandDims_1", "op": "ExpandDims", "input": ["StatefulPartitionedCall/sequential_1/inverted_residual_block_with_se_13/SE_1/Mul_1/ExpandDims", "StatefulPartitionedCall/sequential_1/inverted_residual_block_with_se_13/SE_1/Mul_1/ExpandDims_1/dim"], "attr": {"T": {"type": "DT_FLOAT"}, "Tdim": {"type": "DT_INT32"}}}, {"name": "StatefulPartitionedCall/sequential_1/inverted_residual_block_with_se_13/SE_1/Mul_1/mul", "op": "Mul", "input": ["StatefulPartitionedCall/sequential_1/inverted_residual_block_with_se_13/DConv2D_1/depthwise", "StatefulPartitionedCall/sequential_1/inverted_residual_block_with_se_13/SE_1/Mul_1/ExpandDims_1"], "attr": {"T": {"type": "DT_FLOAT"}}}, {"name": "StatefulPartitionedCall/sequential_1/inverted_residual_block_with_se_13/Relu_3", "op": "_FusedConv2D", "input": ["StatefulPartitionedCall/sequential_1/inverted_residual_block_with_se_13/SE_1/Mul_1/mul", "StatefulPartitionedCall/sequential_1/inverted_residual_block_with_se_13/Conv2D_2/Conv2D_weights", "StatefulPartitionedCall/sequential_1/inverted_residual_block_with_se_13/Conv2D_2/Conv2D_bn_offset"], "device": "/device:CPU:0", "attr": {"epsilon": {"f": 0.0}, "num_args": {"i": "1"}, "padding": {"s": "U0FNRQ=="}, "strides": {"list": {"i": ["1", "1", "1", "1"]}}, "data_format": {"s": "TkhXQw=="}, "explicit_paddings": {"list": {}}, "use_cudnn_on_gpu": {"b": true}, "fused_ops": {"list": {"s": ["Qmlhc0FkZA==", "UmVsdQ=="]}}, "dilations": {"list": {"i": ["1", "1", "1", "1"]}}, "T": {"type": "DT_FLOAT"}}}, {"name": "StatefulPartitionedCall/sequential_1/inverted_residual_block_with_se_13/add", "op": "AddV2", "input": ["StatefulPartitionedCall/sequential_1/inverted_residual_block_with_se_13/Relu_3", "StatefulPartitionedCall/sequential_1/hard_swish_14/mul"], "attr": {"T": {"type": "DT_FLOAT"}}}, {"name": "StatefulPartitionedCall/sequential_1/hard_swish_15/truediv", "op": "Mul", "input": ["ConstantFolding/StatefulPartitionedCall/sequential_1/hard_swish_15/truediv_recip", "StatefulPartitionedCall/sequential_1/inverted_residual_block_with_se_13/add"], "attr": {"_grappler_ArithmeticOptimizer_MinimizeBroadcasts": {"b": true}, "T": {"type": "DT_FLOAT"}}}, {"name": "StatefulPartitionedCall/sequential_1/hard_swish_15/add", "op": "AddV2", "input": ["StatefulPartitionedCall/sequential_1/inverted_residual_block_with_se_13/add", "StatefulPartitionedCall/sequential_1/hard_swish_15/add/y"], "attr": {"T": {"type": "DT_FLOAT"}}}, {"name": "StatefulPartitionedCall/sequential_1/hard_swish_15/Relu6", "op": "Relu6", "input": ["StatefulPartitionedCall/sequential_1/hard_swish_15/add"], "attr": {"T": {"type": "DT_FLOAT"}}}, {"name": "StatefulPartitionedCall/sequential_1/hard_swish_15/mul", "op": "Mul", "input": ["StatefulPartitionedCall/sequential_1/hard_swish_15/truediv", "StatefulPartitionedCall/sequential_1/hard_swish_15/Relu6"], "attr": {"_grappler_ArithmeticOptimizer_MinimizeBroadcasts": {"b": true}, "T": {"type": "DT_FLOAT"}}}, {"name": "StatefulPartitionedCall/sequential_1/batch_normalization_1/FusedBatchNormV3", "op": "_FusedConv2D", "input": ["StatefulPartitionedCall/sequential_1/hard_swish_15/mul", "StatefulPartitionedCall/sequential_1/conv2d_5/Conv2D_weights", "StatefulPartitionedCall/sequential_1/conv2d_5/Conv2D_bn_offset"], "device": "/device:CPU:0", "attr": {"epsilon": {"f": 0.0}, "num_args": {"i": "1"}, "strides": {"list": {"i": ["1", "1", "1", "1"]}}, "dilations": {"list": {"i": ["1", "1", "1", "1"]}}, "explicit_paddings": {"list": {}}, "padding": {"s": "U0FNRQ=="}, "use_cudnn_on_gpu": {"b": true}, "fused_ops": {"list": {"s": ["Qmlhc0FkZA=="]}}, "T": {"type": "DT_FLOAT"}, "data_format": {"s": "TkhXQw=="}}}, {"name": "StatefulPartitionedCall/sequential_1/hard_swish_16/truediv", "op": "Mul", "input": ["ConstantFolding/StatefulPartitionedCall/sequential_1/hard_swish_16/truediv_recip", "StatefulPartitionedCall/sequential_1/batch_normalization_1/FusedBatchNormV3"], "attr": {"T": {"type": "DT_FLOAT"}, "_grappler_ArithmeticOptimizer_MinimizeBroadcasts": {"b": true}}}, {"name": "StatefulPartitionedCall/sequential_1/hard_swish_16/add", "op": "AddV2", "input": ["StatefulPartitionedCall/sequential_1/batch_normalization_1/FusedBatchNormV3", "StatefulPartitionedCall/sequential_1/hard_swish_16/add/y"], "attr": {"T": {"type": "DT_FLOAT"}}}, {"name": "StatefulPartitionedCall/sequential_1/hard_swish_16/Relu6", "op": "Relu6", "input": ["StatefulPartitionedCall/sequential_1/hard_swish_16/add"], "attr": {"T": {"type": "DT_FLOAT"}}}, {"name": "StatefulPartitionedCall/sequential_1/hard_swish_16/mul", "op": "Mul", "input": ["StatefulPartitionedCall/sequential_1/hard_swish_16/truediv", "StatefulPartitionedCall/sequential_1/hard_swish_16/Relu6"], "attr": {"T": {"type": "DT_FLOAT"}, "_grappler_ArithmeticOptimizer_MinimizeBroadcasts": {"b": true}}}, {"name": "StatefulPartitionedCall/sequential_1/average_pooling2d_1/AvgPool", "op": "AvgPool", "input": ["StatefulPartitionedCall/sequential_1/hard_swish_16/mul"], "attr": {"data_format": {"s": "TkhXQw=="}, "ksize": {"list": {"i": ["1", "8", "8", "1"]}}, "padding": {"s": "U0FNRQ=="}, "T": {"type": "DT_FLOAT"}, "strides": {"list": {"i": ["1", "8", "8", "1"]}}}}, {"name": "StatefulPartitionedCall/sequential_1/conv2d_6/BiasAdd", "op": "_FusedConv2D", "input": ["StatefulPartitionedCall/sequential_1/average_pooling2d_1/AvgPool", "StatefulPartitionedCall/sequential_1/conv2d_6/Conv2D/ReadVariableOp", "StatefulPartitionedCall/sequential_1/conv2d_6/BiasAdd/ReadVariableOp"], "device": "/device:CPU:0", "attr": {"explicit_paddings": {"list": {}}, "fused_ops": {"list": {"s": ["Qmlhc0FkZA=="]}}, "T": {"type": "DT_FLOAT"}, "num_args": {"i": "1"}, "strides": {"list": {"i": ["1", "1", "1", "1"]}}, "use_cudnn_on_gpu": {"b": true}, "dilations": {"list": {"i": ["1", "1", "1", "1"]}}, "data_format": {"s": "TkhXQw=="}, "padding": {"s": "U0FNRQ=="}, "epsilon": {"f": 0.0}}}, {"name": "StatefulPartitionedCall/sequential_1/hard_swish_17/truediv", "op": "Mul", "input": ["ConstantFolding/StatefulPartitionedCall/sequential_1/hard_swish_17/truediv_recip", "StatefulPartitionedCall/sequential_1/conv2d_6/BiasAdd"], "attr": {"T": {"type": "DT_FLOAT"}, "_grappler_ArithmeticOptimizer_MinimizeBroadcasts": {"b": true}}}, {"name": "StatefulPartitionedCall/sequential_1/hard_swish_17/add", "op": "AddV2", "input": ["StatefulPartitionedCall/sequential_1/conv2d_6/BiasAdd", "StatefulPartitionedCall/sequential_1/hard_swish_17/add/y"], "attr": {"T": {"type": "DT_FLOAT"}}}, {"name": "StatefulPartitionedCall/sequential_1/hard_swish_17/Relu6", "op": "Relu6", "input": ["StatefulPartitionedCall/sequential_1/hard_swish_17/add"], "attr": {"T": {"type": "DT_FLOAT"}}}, {"name": "StatefulPartitionedCall/sequential_1/hard_swish_17/mul", "op": "Mul", "input": ["StatefulPartitionedCall/sequential_1/hard_swish_17/truediv", "StatefulPartitionedCall/sequential_1/hard_swish_17/Relu6"], "attr": {"_grappler_ArithmeticOptimizer_MinimizeBroadcasts": {"b": true}, "T": {"type": "DT_FLOAT"}}}, {"name": "StatefulPartitionedCall/sequential_1/conv2d_7/BiasAdd", "op": "_FusedConv2D", "input": ["StatefulPartitionedCall/sequential_1/hard_swish_17/mul", "StatefulPartitionedCall/sequential_1/conv2d_7/Conv2D/ReadVariableOp", "StatefulPartitionedCall/sequential_1/conv2d_7/BiasAdd/ReadVariableOp"], "device": "/device:CPU:0", "attr": {"num_args": {"i": "1"}, "use_cudnn_on_gpu": {"b": true}, "data_format": {"s": "TkhXQw=="}, "fused_ops": {"list": {"s": ["Qmlhc0FkZA=="]}}, "T": {"type": "DT_FLOAT"}, "epsilon": {"f": 0.0}, "dilations": {"list": {"i": ["1", "1", "1", "1"]}}, "padding": {"s": "U0FNRQ=="}, "explicit_paddings": {"list": {}}, "strides": {"list": {"i": ["1", "1", "1", "1"]}}}}, {"name": "StatefulPartitionedCall/sequential_1/global_average_pooling2d_1/Mean", "op": "Mean", "input": ["StatefulPartitionedCall/sequential_1/conv2d_7/BiasAdd", "StatefulPartitionedCall/sequential_1/global_average_pooling2d_1/Mean/reduction_indices"], "attr": {"T": {"type": "DT_FLOAT"}, "Tidx": {"type": "DT_INT32"}, "keep_dims": {"b": false}}}, {"name": "StatefulPartitionedCall/sequential_1/re_lu_8/Relu", "op": "_FusedMatMul", "input": ["StatefulPartitionedCall/sequential_1/global_average_pooling2d_1/Mean", "StatefulPartitionedCall/sequential_1/dense_3/MatMul/ReadVariableOp", "StatefulPartitionedCall/sequential_1/dense_3/BiasAdd/ReadVariableOp"], "device": "/device:CPU:0", "attr": {"T": {"type": "DT_FLOAT"}, "fused_ops": {"list": {"s": ["Qmlhc0FkZA==", "UmVsdQ=="]}}, "num_args": {"i": "1"}, "epsilon": {"f": 0.0}, "transpose_b": {"b": false}, "transpose_a": {"b": false}}}, {"name": "StatefulPartitionedCall/sequential_1/re_lu_9/Relu", "op": "_FusedMatMul", "input": ["StatefulPartitionedCall/sequential_1/re_lu_8/Relu", "StatefulPartitionedCall/sequential_1/dense_4/MatMul/ReadVariableOp", "StatefulPartitionedCall/sequential_1/dense_4/BiasAdd/ReadVariableOp"], "device": "/device:CPU:0", "attr": {"T": {"type": "DT_FLOAT"}, "fused_ops": {"list": {"s": ["Qmlhc0FkZA==", "UmVsdQ=="]}}, "transpose_b": {"b": false}, "num_args": {"i": "1"}, "transpose_a": {"b": false}, "epsilon": {"f": 0.0}}}, {"name": "StatefulPartitionedCall/sequential_1/dense_5/BiasAdd", "op": "_FusedMatMul", "input": ["StatefulPartitionedCall/sequential_1/re_lu_9/Relu", "StatefulPartitionedCall/sequential_1/dense_5/MatMul/ReadVariableOp", "StatefulPartitionedCall/sequential_1/dense_5/BiasAdd/ReadVariableOp"], "device": "/device:CPU:0", "attr": {"T": {"type": "DT_FLOAT"}, "num_args": {"i": "1"}, "transpose_b": {"b": false}, "fused_ops": {"list": {"s": ["Qmlhc0FkZA=="]}}, "transpose_a": {"b": false}, "epsilon": {"f": 0.0}}}, {"name": "Identity", "op": "Identity", "input": ["StatefulPartitionedCall/sequential_1/dense_5/BiasAdd"], "attr": {"T": {"type": "DT_FLOAT"}}}], "library": {}, "versions": {"producer": 808}}, "weightsManifest": [{"paths": ["group1-shard1of2.bin", "group1-shard2of2.bin"], "weights": [{"name": "ConstantFolding/StatefulPartitionedCall/sequential_1/hard_swish_17/truediv_recip", "shape": [], "dtype": "float32"}, {"name": "ConstantFolding/StatefulPartitionedCall/sequential_1/hard_swish_16/truediv_recip", "shape": [], "dtype": "float32"}, {"name": "ConstantFolding/StatefulPartitionedCall/sequential_1/hard_swish_15/truediv_recip", "shape": [], "dtype": "float32"}, {"name": "StatefulPartitionedCall/sequential_1/inverted_residual_block_with_se_13/SE_1/GAP_1/Mean/reduction_indices", "shape": [2], "dtype": "int32"}, {"name": "StatefulPartitionedCall/sequential_1/inverted_residual_block_with_se_13/SE_1/Dense_1/MatMul/ReadVariableOp", "shape": [256, 32], "dtype": "float32"}, {"name": "StatefulPartitionedCall/sequential_1/inverted_residual_block_with_se_13/SE_1/Dense_1/BiasAdd/ReadVariableOp", "shape": [32], "dtype": "float32"}, {"name": "StatefulPartitionedCall/sequential_1/inverted_residual_block_with_se_13/SE_1/Dense_1/MatMul_1/ReadVariableOp", "shape": [32, 256], "dtype": "float32"}, {"name": "StatefulPartitionedCall/sequential_1/inverted_residual_block_with_se_13/SE_1/Dense_1/BiasAdd_1/ReadVariableOp", "shape": [256], "dtype": "float32"}, {"name": "StatefulPartitionedCall/sequential_1/inverted_residual_block_with_se_13/SE_1/Mul_1/ExpandDims/dim", "shape": [], "dtype": "int32"}, {"name": "StatefulPartitionedCall/sequential_1/inverted_residual_block_with_se_13/SE_1/Mul_1/ExpandDims_1/dim", "shape": [], "dtype": "int32"}, {"name": "ConstantFolding/StatefulPartitionedCall/sequential_1/hard_swish_14/truediv_recip", "shape": [], "dtype": "float32"}, {"name": "StatefulPartitionedCall/sequential_1/inverted_residual_block_with_se_12/SE_1/GAP_1/Mean/reduction_indices", "shape": [2], "dtype": "int32"}, {"name": "StatefulPartitionedCall/sequential_1/inverted_residual_block_with_se_12/SE_1/Dense_1/MatMul/ReadVariableOp", "shape": [256, 32], "dtype": "float32"}, {"name": "StatefulPartitionedCall/sequential_1/inverted_residual_block_with_se_12/SE_1/Dense_1/BiasAdd/ReadVariableOp", "shape": [32], "dtype": "float32"}, {"name": "StatefulPartitionedCall/sequential_1/inverted_residual_block_with_se_12/SE_1/Dense_1/MatMul_1/ReadVariableOp", "shape": [32, 256], "dtype": "float32"}, {"name": "StatefulPartitionedCall/sequential_1/inverted_residual_block_with_se_12/SE_1/Dense_1/BiasAdd_1/ReadVariableOp", "shape": [256], "dtype": "float32"}, {"name": "StatefulPartitionedCall/sequential_1/inverted_residual_block_with_se_12/SE_1/Mul_1/ExpandDims/dim", "shape": [], "dtype": "int32"}, {"name": "StatefulPartitionedCall/sequential_1/inverted_residual_block_with_se_12/SE_1/Mul_1/ExpandDims_1/dim", "shape": [], "dtype": "int32"}, {"name": "ConstantFolding/StatefulPartitionedCall/sequential_1/hard_swish_13/truediv_recip", "shape": [], "dtype": "float32"}, {"name": "StatefulPartitionedCall/sequential_1/inverted_residual_block_with_se_11/SE_1/GAP_1/Mean/reduction_indices", "shape": [2], "dtype": "int32"}, {"name": "StatefulPartitionedCall/sequential_1/inverted_residual_block_with_se_11/SE_1/Dense_1/MatMul/ReadVariableOp", "shape": [128, 16], "dtype": "float32"}, {"name": "StatefulPartitionedCall/sequential_1/inverted_residual_block_with_se_11/SE_1/Dense_1/BiasAdd/ReadVariableOp", "shape": [16], "dtype": "float32"}, {"name": "StatefulPartitionedCall/sequential_1/inverted_residual_block_with_se_11/SE_1/Dense_1/MatMul_1/ReadVariableOp", "shape": [16, 128], "dtype": "float32"}, {"name": "StatefulPartitionedCall/sequential_1/inverted_residual_block_with_se_11/SE_1/Dense_1/BiasAdd_1/ReadVariableOp", "shape": [128], "dtype": "float32"}, {"name": "StatefulPartitionedCall/sequential_1/inverted_residual_block_with_se_11/SE_1/Mul_1/ExpandDims/dim", "shape": [], "dtype": "int32"}, {"name": "StatefulPartitionedCall/sequential_1/inverted_residual_block_with_se_11/SE_1/Mul_1/ExpandDims_1/dim", "shape": [], "dtype": "int32"}, {"name": "ConstantFolding/StatefulPartitionedCall/sequential_1/hard_swish_12/truediv_recip", "shape": [], "dtype": "float32"}, {"name": "StatefulPartitionedCall/sequential_1/inverted_residual_block_with_se_10/SE_1/GAP_1/Mean/reduction_indices", "shape": [2], "dtype": "int32"}, {"name": "StatefulPartitionedCall/sequential_1/inverted_residual_block_with_se_10/SE_1/Dense_1/MatMul/ReadVariableOp", "shape": [128, 16], "dtype": "float32"}, {"name": "StatefulPartitionedCall/sequential_1/inverted_residual_block_with_se_10/SE_1/Dense_1/BiasAdd/ReadVariableOp", "shape": [16], "dtype": "float32"}, {"name": "StatefulPartitionedCall/sequential_1/inverted_residual_block_with_se_10/SE_1/Dense_1/MatMul_1/ReadVariableOp", "shape": [16, 128], "dtype": "float32"}, {"name": "StatefulPartitionedCall/sequential_1/inverted_residual_block_with_se_10/SE_1/Dense_1/BiasAdd_1/ReadVariableOp", "shape": [128], "dtype": "float32"}, {"name": "StatefulPartitionedCall/sequential_1/inverted_residual_block_with_se_10/SE_1/Mul_1/ExpandDims/dim", "shape": [], "dtype": "int32"}, {"name": "StatefulPartitionedCall/sequential_1/inverted_residual_block_with_se_10/SE_1/Mul_1/ExpandDims_1/dim", "shape": [], "dtype": "int32"}, {"name": "ConstantFolding/StatefulPartitionedCall/sequential_1/hard_swish_11/truediv_recip", "shape": [], "dtype": "float32"}, {"name": "StatefulPartitionedCall/sequential_1/inverted_residual_block_with_se_9/SE_1/GAP_1/Mean/reduction_indices", "shape": [2], "dtype": "int32"}, {"name": "StatefulPartitionedCall/sequential_1/inverted_residual_block_with_se_9/SE_1/Dense_1/MatMul/ReadVariableOp", "shape": [64, 8], "dtype": "float32"}, {"name": "StatefulPartitionedCall/sequential_1/inverted_residual_block_with_se_9/SE_1/Dense_1/BiasAdd/ReadVariableOp", "shape": [8], "dtype": "float32"}, {"name": "StatefulPartitionedCall/sequential_1/inverted_residual_block_with_se_9/SE_1/Dense_1/MatMul_1/ReadVariableOp", "shape": [8, 64], "dtype": "float32"}, {"name": "StatefulPartitionedCall/sequential_1/inverted_residual_block_with_se_9/SE_1/Dense_1/BiasAdd_1/ReadVariableOp", "shape": [64], "dtype": "float32"}, {"name": "StatefulPartitionedCall/sequential_1/inverted_residual_block_with_se_9/SE_1/Mul_1/ExpandDims/dim", "shape": [], "dtype": "int32"}, {"name": "StatefulPartitionedCall/sequential_1/inverted_residual_block_with_se_9/SE_1/Mul_1/ExpandDims_1/dim", "shape": [], "dtype": "int32"}, {"name": "ConstantFolding/StatefulPartitionedCall/sequential_1/hard_swish_10/truediv_recip", "shape": [], "dtype": "float32"}, {"name": "StatefulPartitionedCall/sequential_1/inverted_residual_block_with_se_8/SE_1/GAP_1/Mean/reduction_indices", "shape": [2], "dtype": "int32"}, {"name": "StatefulPartitionedCall/sequential_1/inverted_residual_block_with_se_8/SE_1/Dense_1/MatMul/ReadVariableOp", "shape": [64, 8], "dtype": "float32"}, {"name": "StatefulPartitionedCall/sequential_1/inverted_residual_block_with_se_8/SE_1/Dense_1/BiasAdd/ReadVariableOp", "shape": [8], "dtype": "float32"}, {"name": "StatefulPartitionedCall/sequential_1/inverted_residual_block_with_se_8/SE_1/Dense_1/MatMul_1/ReadVariableOp", "shape": [8, 64], "dtype": "float32"}, {"name": "StatefulPartitionedCall/sequential_1/inverted_residual_block_with_se_8/SE_1/Dense_1/BiasAdd_1/ReadVariableOp", "shape": [64], "dtype": "float32"}, {"name": "StatefulPartitionedCall/sequential_1/inverted_residual_block_with_se_8/SE_1/Mul_1/ExpandDims/dim", "shape": [], "dtype": "int32"}, {"name": "StatefulPartitionedCall/sequential_1/inverted_residual_block_with_se_8/SE_1/Mul_1/ExpandDims_1/dim", "shape": [], "dtype": "int32"}, {"name": "StatefulPartitionedCall/sequential_1/inverted_residual_block_with_se_7/SE_1/GAP_1/Mean/reduction_indices", "shape": [2], "dtype": "int32"}, {"name": "StatefulPartitionedCall/sequential_1/inverted_residual_block_with_se_7/SE_1/Dense_1/MatMul/ReadVariableOp", "shape": [16, 2], "dtype": "float32"}, {"name": "StatefulPartitionedCall/sequential_1/inverted_residual_block_with_se_7/SE_1/Dense_1/BiasAdd/ReadVariableOp", "shape": [2], "dtype": "float32"}, {"name": "StatefulPartitionedCall/sequential_1/inverted_residual_block_with_se_7/SE_1/Dense_1/MatMul_1/ReadVariableOp", "shape": [2, 16], "dtype": "float32"}, {"name": "StatefulPartitionedCall/sequential_1/inverted_residual_block_with_se_7/SE_1/Dense_1/BiasAdd_1/ReadVariableOp", "shape": [16], "dtype": "float32"}, {"name": "StatefulPartitionedCall/sequential_1/inverted_residual_block_with_se_7/SE_1/Mul_1/ExpandDims/dim", "shape": [], "dtype": "int32"}, {"name": "StatefulPartitionedCall/sequential_1/inverted_residual_block_with_se_7/SE_1/Mul_1/ExpandDims_1/dim", "shape": [], "dtype": "int32"}, {"name": "ConstantFolding/StatefulPartitionedCall/sequential_1/hard_swish_9/truediv_recip", "shape": [], "dtype": "float32"}, {"name": "StatefulPartitionedCall/sequential_1/conv2d_4/Conv2D/ReadVariableOp", "shape": [3, 3, 3, 16], "dtype": "float32"}, {"name": "StatefulPartitionedCall/sequential_1/conv2d_4/BiasAdd/ReadVariableOp", "shape": [16], "dtype": "float32"}, {"name": "StatefulPartitionedCall/sequential_1/hard_swish_9/add/y", "shape": [], "dtype": "float32"}, {"name": "StatefulPartitionedCall/sequential_1/inverted_residual_block_with_se_7/Conv2D_3/Conv2D/ReadVariableOp", "shape": [1, 1, 16, 16], "dtype": "float32"}, {"name": "StatefulPartitionedCall/sequential_1/inverted_residual_block_with_se_7/Conv2D_3/BiasAdd/ReadVariableOp", "shape": [16], "dtype": "float32"}, {"name": "StatefulPartitionedCall/sequential_1/inverted_residual_block_2/Conv2D_3/Conv2D/ReadVariableOp", "shape": [1, 1, 32, 32], "dtype": "float32"}, {"name": "StatefulPartitionedCall/sequential_1/inverted_residual_block_2/Conv2D_3/BiasAdd/ReadVariableOp", "shape": [32], "dtype": "float32"}, {"name": "StatefulPartitionedCall/sequential_1/inverted_residual_block_with_se_8/Conv2D_3/Conv2D/ReadVariableOp", "shape": [1, 1, 64, 64], "dtype": "float32"}, {"name": "StatefulPartitionedCall/sequential_1/inverted_residual_block_with_se_8/Conv2D_3/BiasAdd/ReadVariableOp", "shape": [64], "dtype": "float32"}, {"name": "StatefulPartitionedCall/sequential_1/hard_swish_10/add/y", "shape": [], "dtype": "float32"}, {"name": "StatefulPartitionedCall/sequential_1/hard_swish_11/add/y", "shape": [], "dtype": "float32"}, {"name": "StatefulPartitionedCall/sequential_1/inverted_residual_block_with_se_10/Conv2D_3/Conv2D/ReadVariableOp", "shape": [1, 1, 128, 128], "dtype": "float32"}, {"name": "StatefulPartitionedCall/sequential_1/inverted_residual_block_with_se_10/Conv2D_3/BiasAdd/ReadVariableOp", "shape": [128], "dtype": "float32"}, {"name": "StatefulPartitionedCall/sequential_1/hard_swish_12/add/y", "shape": [], "dtype": "float32"}, {"name": "StatefulPartitionedCall/sequential_1/hard_swish_13/add/y", "shape": [], "dtype": "float32"}, {"name": "StatefulPartitionedCall/sequential_1/inverted_residual_block_with_se_12/Conv2D_3/Conv2D/ReadVariableOp", "shape": [1, 1, 256, 256], "dtype": "float32"}, {"name": "StatefulPartitionedCall/sequential_1/inverted_residual_block_with_se_12/Conv2D_3/BiasAdd/ReadVariableOp", "shape": [256], "dtype": "float32"}, {"name": "StatefulPartitionedCall/sequential_1/hard_swish_14/add/y", "shape": [], "dtype": "float32"}, {"name": "StatefulPartitionedCall/sequential_1/hard_swish_15/add/y", "shape": [], "dtype": "float32"}, {"name": "StatefulPartitionedCall/sequential_1/hard_swish_16/add/y", "shape": [], "dtype": "float32"}, {"name": "StatefulPartitionedCall/sequential_1/conv2d_6/Conv2D/ReadVariableOp", "shape": [1, 1, 512, 1024], "dtype": "float32"}, {"name": "StatefulPartitionedCall/sequential_1/conv2d_6/BiasAdd/ReadVariableOp", "shape": [1024], "dtype": "float32"}, {"name": "StatefulPartitionedCall/sequential_1/hard_swish_17/add/y", "shape": [], "dtype": "float32"}, {"name": "StatefulPartitionedCall/sequential_1/conv2d_7/Conv2D/ReadVariableOp", "shape": [1, 1, 1024, 512], "dtype": "float32"}, {"name": "StatefulPartitionedCall/sequential_1/conv2d_7/BiasAdd/ReadVariableOp", "shape": [512], "dtype": "float32"}, {"name": "StatefulPartitionedCall/sequential_1/global_average_pooling2d_1/Mean/reduction_indices", "shape": [2], "dtype": "int32"}, {"name": "StatefulPartitionedCall/sequential_1/dense_3/MatMul/ReadVariableOp", "shape": [512, 256], "dtype": "float32"}, {"name": "StatefulPartitionedCall/sequential_1/dense_3/BiasAdd/ReadVariableOp", "shape": [256], "dtype": "float32"}, {"name": "StatefulPartitionedCall/sequential_1/dense_4/MatMul/ReadVariableOp", "shape": [256, 128], "dtype": "float32"}, {"name": "StatefulPartitionedCall/sequential_1/dense_4/BiasAdd/ReadVariableOp", "shape": [128], "dtype": "float32"}, {"name": "StatefulPartitionedCall/sequential_1/dense_5/MatMul/ReadVariableOp", "shape": [128, 1], "dtype": "float32"}, {"name": "StatefulPartitionedCall/sequential_1/dense_5/BiasAdd/ReadVariableOp", "shape": [1], "dtype": "float32"}, {"name": "StatefulPartitionedCall/sequential_1/inverted_residual_block_with_se_7/Conv2D_1/Conv2D_weights", "shape": [1, 1, 16, 16], "dtype": "float32"}, {"name": "StatefulPartitionedCall/sequential_1/inverted_residual_block_with_se_12/Conv2D_2/Conv2D_bn_offset", "shape": [256], "dtype": "float32"}, {"name": "StatefulPartitionedCall/sequential_1/inverted_residual_block_with_se_7/Conv2D_1/Conv2D_bn_offset", "shape": [16], "dtype": "float32"}, {"name": "StatefulPartitionedCall/sequential_1/inverted_residual_block_with_se_7/DConv2D_1/depthwise_weights", "shape": [3, 3, 16, 1], "dtype": "float32"}, {"name": "StatefulPartitionedCall/sequential_1/inverted_residual_block_with_se_7/DConv2D_1/depthwise_bn_offset", "shape": [16], "dtype": "float32"}, {"name": "StatefulPartitionedCall/sequential_1/inverted_residual_block_with_se_7/Conv2D_2/Conv2D_weights", "shape": [1, 1, 16, 16], "dtype": "float32"}, {"name": "StatefulPartitionedCall/sequential_1/inverted_residual_block_with_se_7/Conv2D_2/Conv2D_bn_offset", "shape": [16], "dtype": "float32"}, {"name": "StatefulPartitionedCall/sequential_1/inverted_residual_block_2/Conv2D_1/Conv2D_weights", "shape": [1, 1, 16, 32], "dtype": "float32"}, {"name": "StatefulPartitionedCall/sequential_1/inverted_residual_block_2/Conv2D_1/Conv2D_bn_offset", "shape": [32], "dtype": "float32"}, {"name": "StatefulPartitionedCall/sequential_1/inverted_residual_block_with_se_13/Conv2D_1/Conv2D_weights", "shape": [1, 1, 256, 256], "dtype": "float32"}, {"name": "StatefulPartitionedCall/sequential_1/inverted_residual_block_2/DConv2D_1/depthwise_weights", "shape": [3, 3, 32, 1], "dtype": "float32"}, {"name": "StatefulPartitionedCall/sequential_1/inverted_residual_block_2/DConv2D_1/depthwise_bn_offset", "shape": [32], "dtype": "float32"}, {"name": "StatefulPartitionedCall/sequential_1/inverted_residual_block_2/Conv2D_2/Conv2D_weights", "shape": [1, 1, 32, 32], "dtype": "float32"}, {"name": "StatefulPartitionedCall/sequential_1/inverted_residual_block_2/Conv2D_2/Conv2D_bn_offset", "shape": [32], "dtype": "float32"}, {"name": "StatefulPartitionedCall/sequential_1/inverted_residual_block_with_se_13/Conv2D_1/Conv2D_bn_offset", "shape": [256], "dtype": "float32"}, {"name": "StatefulPartitionedCall/sequential_1/inverted_residual_block_3/Conv2D_1/Conv2D_weights", "shape": [1, 1, 32, 32], "dtype": "float32"}, {"name": "StatefulPartitionedCall/sequential_1/inverted_residual_block_3/Conv2D_1/Conv2D_bn_offset", "shape": [32], "dtype": "float32"}, {"name": "StatefulPartitionedCall/sequential_1/inverted_residual_block_3/DConv2D_1/depthwise_weights", "shape": [3, 3, 32, 1], "dtype": "float32"}, {"name": "StatefulPartitionedCall/sequential_1/inverted_residual_block_3/DConv2D_1/depthwise_bn_offset", "shape": [32], "dtype": "float32"}, {"name": "StatefulPartitionedCall/sequential_1/inverted_residual_block_3/Conv2D_2/Conv2D_weights", "shape": [1, 1, 32, 32], "dtype": "float32"}, {"name": "StatefulPartitionedCall/sequential_1/inverted_residual_block_with_se_13/DConv2D_1/depthwise_weights", "shape": [3, 3, 256, 1], "dtype": "float32"}, {"name": "StatefulPartitionedCall/sequential_1/inverted_residual_block_3/Conv2D_2/Conv2D_bn_offset", "shape": [32], "dtype": "float32"}, {"name": "StatefulPartitionedCall/sequential_1/inverted_residual_block_with_se_8/Conv2D_1/Conv2D_weights", "shape": [1, 1, 32, 64], "dtype": "float32"}, {"name": "StatefulPartitionedCall/sequential_1/inverted_residual_block_with_se_13/DConv2D_1/depthwise_bn_offset", "shape": [256], "dtype": "float32"}, {"name": "StatefulPartitionedCall/sequential_1/inverted_residual_block_with_se_8/Conv2D_1/Conv2D_bn_offset", "shape": [64], "dtype": "float32"}, {"name": "StatefulPartitionedCall/sequential_1/inverted_residual_block_with_se_8/DConv2D_1/depthwise_weights", "shape": [3, 3, 64, 1], "dtype": "float32"}, {"name": "StatefulPartitionedCall/sequential_1/inverted_residual_block_with_se_8/DConv2D_1/depthwise_bn_offset", "shape": [64], "dtype": "float32"}, {"name": "StatefulPartitionedCall/sequential_1/inverted_residual_block_with_se_8/Conv2D_2/Conv2D_weights", "shape": [1, 1, 64, 64], "dtype": "float32"}, {"name": "StatefulPartitionedCall/sequential_1/inverted_residual_block_with_se_8/Conv2D_2/Conv2D_bn_offset", "shape": [64], "dtype": "float32"}, {"name": "StatefulPartitionedCall/sequential_1/inverted_residual_block_with_se_9/Conv2D_1/Conv2D_weights", "shape": [1, 1, 64, 64], "dtype": "float32"}, {"name": "StatefulPartitionedCall/sequential_1/inverted_residual_block_with_se_9/Conv2D_1/Conv2D_bn_offset", "shape": [64], "dtype": "float32"}, {"name": "StatefulPartitionedCall/sequential_1/inverted_residual_block_with_se_9/DConv2D_1/depthwise_weights", "shape": [3, 3, 64, 1], "dtype": "float32"}, {"name": "StatefulPartitionedCall/sequential_1/inverted_residual_block_with_se_9/DConv2D_1/depthwise_bn_offset", "shape": [64], "dtype": "float32"}, {"name": "StatefulPartitionedCall/sequential_1/inverted_residual_block_with_se_9/Conv2D_2/Conv2D_weights", "shape": [1, 1, 64, 64], "dtype": "float32"}, {"name": "StatefulPartitionedCall/sequential_1/inverted_residual_block_with_se_9/Conv2D_2/Conv2D_bn_offset", "shape": [64], "dtype": "float32"}, {"name": "StatefulPartitionedCall/sequential_1/inverted_residual_block_with_se_13/Conv2D_2/Conv2D_weights", "shape": [1, 1, 256, 256], "dtype": "float32"}, {"name": "StatefulPartitionedCall/sequential_1/inverted_residual_block_with_se_10/Conv2D_1/Conv2D_weights", "shape": [1, 1, 64, 128], "dtype": "float32"}, {"name": "StatefulPartitionedCall/sequential_1/inverted_residual_block_with_se_10/Conv2D_1/Conv2D_bn_offset", "shape": [128], "dtype": "float32"}, {"name": "StatefulPartitionedCall/sequential_1/inverted_residual_block_with_se_13/Conv2D_2/Conv2D_bn_offset", "shape": [256], "dtype": "float32"}, {"name": "StatefulPartitionedCall/sequential_1/inverted_residual_block_with_se_10/DConv2D_1/depthwise_weights", "shape": [3, 3, 128, 1], "dtype": "float32"}, {"name": "StatefulPartitionedCall/sequential_1/inverted_residual_block_with_se_10/DConv2D_1/depthwise_bn_offset", "shape": [128], "dtype": "float32"}, {"name": "StatefulPartitionedCall/sequential_1/inverted_residual_block_with_se_10/Conv2D_2/Conv2D_weights", "shape": [1, 1, 128, 128], "dtype": "float32"}, {"name": "StatefulPartitionedCall/sequential_1/inverted_residual_block_with_se_10/Conv2D_2/Conv2D_bn_offset", "shape": [128], "dtype": "float32"}, {"name": "StatefulPartitionedCall/sequential_1/inverted_residual_block_with_se_11/Conv2D_1/Conv2D_weights", "shape": [1, 1, 128, 128], "dtype": "float32"}, {"name": "StatefulPartitionedCall/sequential_1/inverted_residual_block_with_se_11/Conv2D_1/Conv2D_bn_offset", "shape": [128], "dtype": "float32"}, {"name": "StatefulPartitionedCall/sequential_1/inverted_residual_block_with_se_11/DConv2D_1/depthwise_weights", "shape": [3, 3, 128, 1], "dtype": "float32"}, {"name": "StatefulPartitionedCall/sequential_1/inverted_residual_block_with_se_11/DConv2D_1/depthwise_bn_offset", "shape": [128], "dtype": "float32"}, {"name": "StatefulPartitionedCall/sequential_1/conv2d_5/Conv2D_weights", "shape": [1, 1, 256, 512], "dtype": "float32"}, {"name": "StatefulPartitionedCall/sequential_1/conv2d_5/Conv2D_bn_offset", "shape": [512], "dtype": "float32"}, {"name": "StatefulPartitionedCall/sequential_1/inverted_residual_block_with_se_11/Conv2D_2/Conv2D_weights", "shape": [1, 1, 128, 128], "dtype": "float32"}, {"name": "StatefulPartitionedCall/sequential_1/inverted_residual_block_with_se_11/Conv2D_2/Conv2D_bn_offset", "shape": [128], "dtype": "float32"}, {"name": "StatefulPartitionedCall/sequential_1/inverted_residual_block_with_se_12/Conv2D_1/Conv2D_weights", "shape": [1, 1, 128, 256], "dtype": "float32"}, {"name": "StatefulPartitionedCall/sequential_1/inverted_residual_block_with_se_12/Conv2D_1/Conv2D_bn_offset", "shape": [256], "dtype": "float32"}, {"name": "StatefulPartitionedCall/sequential_1/inverted_residual_block_with_se_12/DConv2D_1/depthwise_weights", "shape": [3, 3, 256, 1], "dtype": "float32"}, {"name": "StatefulPartitionedCall/sequential_1/inverted_residual_block_with_se_12/DConv2D_1/depthwise_bn_offset", "shape": [256], "dtype": "float32"}, {"name": "StatefulPartitionedCall/sequential_1/inverted_residual_block_with_se_12/Conv2D_2/Conv2D_weights", "shape": [1, 1, 256, 256], "dtype": "float32"}]}]}